Assignment/A2/a2_files/model.pt (torch, 270107 bytes, 5 tensors)

embedding.weight f4 [3165, 16]
0	0x00000000	0.0
1	0x00000000	0.0
2	0x00000000	0.0
3	0x00000000	0.0
4	0x00000000	0.0
5	0x00000000	0.0
6	0x00000000	0.0
7	0x00000000	0.0
8	0x00000000	0.0
9	0x00000000	0.0
10	0x00000000	0.0
11	0x00000000	0.0
12	0x00000000	0.0
13	0x00000000	0.0
14	0x00000000	0.0
15	0x00000000	0.0
16	0x3d815355	0.063147224
17	0xbd8586f0	-0.06519878
18	0xbd335bc9	-0.043788705
19	0x3dcab54c	0.09897861
20	0x3c95f75f	0.018306432
21	0x3ccba16c	0.024857245
22	0x3cd044eb	0.025423488
23	0xbe049351	-0.12946822
24	0x3de8a3d1	0.113593705
25	0x3e62c749	0.22146334
26	0x3db82fd4	0.089934975
27	0x3d9b54b5	0.07584516
28	0x3d6acfe4	0.057327166
29	0xbcafb0e2	-0.021446649
30	0xbca8fc63	-0.02062816
31	0x3d373364	0.044726744
32	0xbda3a8fb	-0.07991215
33	0x3ccdabac	0.025106274
34	0xbd0cabfb	-0.0343437
35	0xbd437ae7	-0.04772463
36	0xbd470df6	-0.0485973
37	0xbd75ddc9	-0.060025964
38	0x3cc23506	0.023706924
39	0x3dce3d97	0.10070341
40	0xbc9eee18	-0.019400641
41	0x3da1a4c8	0.07892758
42	0xbdd0d9b0	-0.101977706
43	0xbcc8b8eb	-0.024502238
44	0xbd824556	-0.06360881
45	0x3b824b5e	0.0039762696
46	0xbc4310b8	-0.0119058415
47	0xbcd94d80	-0.026526213
48	0x3d84e0a7	0.064881615
49	0x3e19b528	0.15010512
50	0x3c902455	0.01759545
51	0x3d211052	0.039322205
52	0x3d5019fe	0.050806038
53	0x3d97c519	0.0741064
54	0xbd1528e3	-0.036415946
55	0xbdb2a627	-0.08723097
56	0xbe1708bb	-0.14749424
57	0x3cdc5152	0.026894245
58	0xbdfc2f64	-0.123137265
59	0x3ea03ab1	0.31294778
60	0xbd8650a4	-0.0655835
61	0xbd8930dc	-0.06698772
62	0x3cffc3fb	0.03122138
63	0x3d53658d	0.05161052
64	0xbd82231c	-0.06354353
65	0xbd4da33d	-0.050204504
66	0xbcb8e901	-0.022572042
67	0xbd722700	-0.059119225
68	0xbd774fa6	-0.060378693
69	0xbd9ad0ff	-0.07559394
70	0x3d215486	0.03938725
71	0x3dc50fc1	0.096221454
72	0xbd1d1bc2	-0.03835655
73	0x3d1eac7c	0.038738713
74	0xbcad9ae9	-0.021192031
75	0xbd457a90	-0.048212588
76	0x3cd9820d	0.02655127
77	0x3d2b37c0	0.041801214
78	0xbd00e5c6	-0.03146913
79	0xbd81fc38	-0.06346935
80	0x3a805f24	0.0009793979
81	0xbde323b1	-0.11090792
82	0xb8127b10	-3.4923723e-05
83	0xbbc3ca10	-0.0059750155
84	0xbad38460	-0.0016137473
85	0xbbd4d2bb	-0.0064948476
86	0x3bf59ca6	0.0074954806
87	0xbcba9a63	-0.022778695
88	0xbde6e5b6	-0.11274283
89	0xbdb3e831	-0.08784521
90	0x3c91a1f1	0.017777415
91	0xbdfc1785	-0.123091735
92	0x3d4025b8	0.04691097
93	0x3c86ab6c	0.016439162
94	0xbc2cb6a2	-0.01054159
95	0xbc257ad2	-0.010100083
96	0x3b98df90	0.0046653226
97	0xbd36cc22	-0.04462827
98	0xbccea4f8	-0.025225148
99	0xbca7816f	-0.020447461
100	0x3c00c5a6	0.007859623
101	0x3cf4d21d	0.029885346
102	0xbc2f0615	-0.010682602
103	0x3c8f7944	0.017513879
104	0x3e4a3235	0.19745715
105	0xbe389b95	-0.180281
106	0x3e08a714	0.13344985
107	0xbe8deee6	-0.27721328
108	0xbe007111	-0.12543131
109	0xbd55a488	-0.052158862
110	0x3ce067d0	0.027393252
111	0x3c725e42	0.014792981
112	0xbd8b6a47	-0.0680738
113	0xbe627fc3	-0.2211905
114	0xbc8fd4b1	-0.017557474
115	0x3c810c45	0.01575292
116	0xbc743d1b	-0.014907147
117	0xbd5e6580	-0.054296017
118	0x3ca056fd	0.01957273
119	0x3c74acaa	0.014933744
120	0xbe8f3627	-0.27971002
121	0x3c05be7f	0.008163094
122	0x3cf395ce	0.029734518
123	0xbc4ef328	-0.012631215
124	0x3d963c94	0.07335773
125	0x3d12c9ec	0.0358371
126	0xbca7615d	-0.020432169
127	0x3ca90ce7	0.020636035
128	0xbdbd7276	-0.09250347
129	0xbe501886	-0.20321855
130	0xbc59bd5a	-0.013289774
131	0xbd3c8855	-0.046028454
132	0xbcbcf69e	-0.023066815
133	0xbd2661ee	-0.040620737
134	0x3b98a67a	0.0046585174
135	0x3db003fa	0.085945085
136	0xbe40e484	-0.18837172
137	0x3d95feda	0.07324
138	0xbb6be387	-0.003599377
139	0xbe040826	-0.12893733
140	0xbdafb54c	-0.085795015
141	0x3b56dbb8	0.0032784771
142	0x3b4e3476	0.0031464375
143	0xbbfa08fe	-0.0076304665
144	0x3d057d48	0.03259018
145	0xbd1ae594	-0.0378166
146	0xbadb9c97	-0.0016755041
147	0x3c327767	0.010892726
148	0x3d1bcd16	0.038037382
149	0x3d8bbbf5	0.06822959
150	0xbd066560	-0.032811522
151	0xbd3308da	-0.043709613
152	0x3cd15917	0.025555177
153	0xbe3b55eb	-0.18294494
154	0xbd41ca1e	-0.047311895
155	0xbea47df6	-0.3212735
156	0xbe0d9401	-0.1382599
157	0xbd901ea8	-0.07037097
158	0x3d1b9e0f	0.037992533
159	0x3d2ae3e3	0.041721236
160	0x3c9de635	0.01927481
161	0x3df578c7	0.11985927
162	0x3cc5e554	0.024157204
163	0xbd2d7bc8	-0.042354375
164	0xbbd76a7b	-0.0065739728
165	0x3aa59452	0.0012632704
166	0xbb603c41	-0.0034215602
167	0x3c8296f4	0.01594112
168	0xbc2c9c2f	-0.010535284
169	0x3cf2c3cf	0.029634384
170	0xbde67e97	-0.11254614
171	0x3da2a370	0.079413295
172	0x3d1177bd	0.035514582
173	0x3c94efda	0.018180776
174	0x3a21fbbb	0.00061791734
175	0xbcefa5e2	-0.029253904
176	0x3d2d75cd	0.04234867
177	0xbd8d9232	-0.0691265
178	0x3cc39f80	0.023879766
179	0x3b1346d4	0.0022472637
180	0x3cb79be9	0.022413211
181	0x3d0be9d6	0.03415855
182	0xbcb7747e	-0.022394415
183	0xbcaedbd0	-0.02134505
184	0xbce0c23b	-0.027436366
185	0xbe44b9e0	-0.1921153
186	0x3db7583d	0.08952377
187	0xbd778cac	-0.06043689
188	0xbb2a674a	-0.0026001506
189	0xbca9ca04	-0.020726211
190	0x3c9ce77f	0.019153355
191	0x3c7ae95b	0.015314425
192	0x3d3d3bff	0.046199795
193	0x3e399132	0.18121794
194	0x3d3e886e	0.04651683
195	0x3bd0f93c	0.0063773673
196	0x3d261d50	0.0405553
197	0x3cec62d6	0.028855722
198	0xbce11f73	-0.027480816
199	0xbda2ccf0	-0.07949245
200	0x3e2dad97	0.1696075
201	0xbeb8861e	-0.36039823
202	0x3e8081f2	0.2509914
203	0x3e9dd21f	0.30824372
204	0x3d7be599	0.06149826
205	0x3a092f5e	0.00052331935
206	0x3c32ff35	0.010925104
207	0x3c17a32a	0.00925521
208	0x3ccaf002	0.024772648
209	0x3e0d8d91	0.13823535
210	0xbcb1a3f8	-0.021684632
211	0x3cb0cae8	0.021581128
212	0x3c9b8aae	0.018987026
213	0x3d5e8c37	0.054332938
214	0xbcbf0629	-0.023318367
215	0x3cfa66d2	0.030566607
216	0xbe492d32	-0.19646147
217	0x3e4a1d74	0.19737798
218	0xbe3ebe14	-0.18627197
219	0x3ebc4af7	0.36775944
220	0xbe5dc676	-0.21657738
221	0xbdb8d7e5	-0.090255536
222	0x3d4de0f1	0.05026335
223	0x3d79f33f	0.061022993
224	0xbc26a800	-0.01017189
225	0xbced2cda	-0.028952051
226	0xbbeb9969	-0.007189919
227	0x3c8865d1	0.016650112
228	0xbb0d1d4d	-0.0021532357
229	0xbc38cac2	-0.01127881
230	0x3bc058d1	0.0058699627
231	0xbc219e9a	-0.009864474
232	0xbdd3f0c3	-0.10348656
233	0x3b897cb2	0.004195773
234	0x3d88a01a	0.06671162
235	0x3e58bc7f	0.21165656
236	0x3be3b7d4	0.0069494043
237	0x3a085c0e	0.00052017055
238	0xbb3ad7c7	-0.002850996
239	0x3b9b5f68	0.004741598
240	0xbbbffe58	-0.0058591776
241	0xbdef88b7	-0.11695998
242	0xbc99bb8b	-0.018766185
243	0x3d2a6e6d	0.041609216
244	0x3c2490e4	0.01004431
245	0xbb1e3278	-0.0024138968
246	0x3bb0ef90	0.005399652
247	0xbd06b724	-0.0328895
248	0x3daed4f9	0.08536715
249	0x3e466430	0.19374156
250	0x3e288c84	0.16459852
251	0x3dc0c4d5	0.09412543
252	0xbb37b71a	-0.002803272
253	0xbc1d112d	-0.009586615
254	0xb9a464fa	-0.0003135575
255	0x3d1c18f0	0.03810972

fc1.weight f4 [200, 16]
0	0xbd6aaffe	-0.057296745
1	0x3e669197	0.22516476
2	0xbc2fb801	-0.010725022
3	0xbd377507	-0.04478934
4	0xbd89f6bc	-0.06736514
5	0xbda05305	-0.07828335
6	0x3d30ed23	0.0431949
7	0x3d8a2390	0.06745064
8	0x3eb665cd	0.35624543
9	0xbe496a2f	-0.19669412
10	0x3e0b68cd	0.13614197
11	0x3e0a9971	0.13535096
12	0x3dac90b4	0.084260374
13	0x3d99de12	0.0751306
14	0xbd23b32b	-0.03996579
15	0xbda1a950	-0.07893622
16	0x3c6361de	0.013878314
17	0xbd3868e1	-0.045021895
18	0x3bf7dc78	0.0075641237
19	0x3bccee9e	0.0062540313
20	0x3c3752ec	0.011189204
21	0x3c4ca774	0.012491096
22	0xbbffd8ee	-0.0078078425
23	0xbc46709a	-0.012111807
24	0xbdc7a295	-0.09747807
25	0xbd949f39	-0.07256932
26	0x3d0c885e	0.034309737
27	0x3d147640	0.036245584
28	0xbb1a486b	-0.00235417
29	0xbc0a500f	-0.008441939
30	0x3bd744ac	0.0065694656
31	0x3c1d09c9	0.0095848525
32	0x3dc91e3f	0.09820222
33	0xbd990950	-0.07472479
34	0x3c44b15b	0.012005175
35	0x3d8a3b7b	0.06749626
36	0x3d5a1d70	0.05325073
37	0x3d9845d6	0.07435195
38	0xbca9d940	-0.020733476
39	0xbdee47db	-0.11634799
40	0xbbfa7e47	-0.007644448
41	0x3dcb435a	0.09924956
42	0x3cef6463	0.029222673
43	0xbc1dfdf9	-0.009643071
44	0x3d05d6f9	0.032675717
45	0xbd160c84	-0.03663303
46	0x3c6c94c5	0.014439766
47	0x3d4f746c	0.050648138
48	0xbc094a11	-0.008379475
49	0x3e3d638e	0.18495008
50	0x3a70f168	0.0009191246
51	0xbcd21bdd	-0.025648052
52	0xbce381a2	-0.027771775
53	0xbcd082b6	-0.025452953
54	0x3c8cfe97	0.017211242
55	0x3c4190af	0.01181428
56	0x3ebf471d	0.37358943
57	0xbe1b4b79	-0.1516551
58	0x3dee0e2f	0.11623799
59	0x3d93dc2d	0.072197296
60	0x3d67f95e	0.0566343
61	0x3cfd13e5	0.030893276
62	0xbcbf07f3	-0.02331922
63	0xbd22d26b	-0.03975145
64	0x3d5f1bb2	0.05446977
65	0xbdf101c3	-0.11767914
66	0x3d058322	0.03259576
67	0x3d33b9dc	0.04387842
68	0x3d1571a3	0.036485326
69	0x3cfa5fd8	0.03056328
70	0xbc8ee0f0	-0.017441243
71	0xbd741939	-0.059594367
72	0xbea27608	-0.31730676
73	0xbead006a	-0.33789378
74	0x3e2391a1	0.15973522
75	0x3e333a40	0.1750269
76	0x3de1bcf9	0.11022372
77	0x3c321c46	0.010870999
78	0x3b5e76a6	0.0033945232
79	0x3cce4dde	0.025183614
80	0xbc0ed15c	-0.008716907
81	0xbdd2a9e5	-0.10286311
82	0x3bed9f6d	0.007251671
83	0x3bae6618	0.005322229
84	0xbad609a7	-0.0016329781
85	0xbc0dda67	-0.008658028
86	0xbaf67cf9	-0.0018805555
87	0x3c93c1ca	0.018036742
88	0xbe3aaf73	-0.18230991
89	0xbe2993e6	-0.16560325
90	0x3dcb7513	0.099344395
91	0x3d849ebd	0.064755894
92	0x3a77aa9e	0.0009447726
93	0x3b31fb97	0.0027158016
94	0x3b3c79b7	0.002875907
95	0xbb26684b	-0.0025391753
96	0x2e8b3961	6.331181e-11
97	0xada92e1c	-1.9233552e-11
98	0xaf10cfda	-1.3170567e-10
99	0x2f63629a	2.068056e-10
100	0xadd070a4	-2.3696885e-11
101	0x2e2c2e09	3.914916e-11
102	0x2f74c27f	2.226077e-10
103	0x2f3b9cf6	1.7063315e-10
104	0x2f9ff82b	2.9098265e-10
105	0xae7c4f06	-5.7368353e-11
106	0xaea0460c	-7.2884004e-11
107	0xb01d471b	-5.7217314e-10
108	0x2f2fd225	1.5990816e-10
109	0x2f034762	1.1939741e-10
110	0xaf05627f	-1.2131272e-10
111	0xaf27eba9	-1.5272285e-10
112	0xbb65074b	-0.0034946974
113	0xbd18bebb	-0.03729127
114	0x3b758d14	0.0037468122
115	0xbcee7dab	-0.029112658
116	0xbb3bdf0d	-0.0028666884
117	0x3acf5cec	0.001582054
118	0xbbd2a84a	-0.006428753
119	0x3cc8c9d6	0.024510305
120	0xbd0a9aad	-0.033838917
121	0xbca442f9	-0.020051466
122	0xbe549acb	-0.20762174
123	0xbeefe7b7	-0.46856472
124	0xbd10fe1d	-0.03539859
125	0xbbf182ca	-0.0073703276
126	0x3c0a6872	0.008447753
127	0xbc21ed95	-0.009883304
128	0xbca596ec	-0.020213567
129	0x3e6ec5b6	0.23317608
130	0xbc04c7ba	-0.008104259
131	0xbd1c405e	-0.038147323
132	0x3b94af3a	0.00453749
133	0x3cbd4ba3	0.023107355
134	0xbcb967df	-0.022632537
135	0x3c88dd95	0.016707221
136	0xbe41ad0a	-0.18913665
137	0x3e2e53cf	0.17024158
138	0xbe88741b	-0.2665108
139	0x3ea35156	0.31897992
140	0xbe09393a	-0.13400736
141	0xbd4a56a4	-0.049399033
142	0x3cd3aa71	0.025838109
143	0x3caf600a	0.0214081
144	0x023e981b	1.4002648e-37
145	0x025adf36	1.6080169e-37
146	0x00db3aa6	2.0133013e-38
147	0x01c40e1d	7.201928e-38
148	0x01c74374	7.3197845e-38
149	0x0025a6a4	3.457693e-39
150	0x80e80c9f	-2.1310363e-38
151	0x81b6b8e3	-6.712154e-38
152	0x82ba4f25	-2.737567e-37
153	0x0292dff8	2.1581324e-37
154	0x82e8a52b	-3.4184138e-37
155	0x02839438	1.9333793e-37
156	0x019266cd	5.377944e-38
157	0x80e91c1d	-2.1407756e-38
158	0x01626ca2	4.1587584e-38
159	0x01ac044e	6.3189e-38
160	0xbc633f0e	-0.013870014
161	0x3e5d117a	0.21588698
162	0xbc63f205	-0.013912682
163	0xbcba199a	-0.022717286
164	0x3a88b4e6	0.0010429888
165	0x3c694998	0.0142387375
166	0xbc3d4a21	-0.011553318
167	0x3cb061f0	0.021531075
168	0xbe7109a3	-0.23538832
169	0x3e01e976	0.12686715
170	0xbe96f3dc	-0.29482925
171	0x3e874f29	0.26427582
172	0xbdf99270	-0.12186134
173	0xbd3dc79d	-0.046332944
174	0x3c9c4d0b	0.019079706
175	0x3cabc3e3	0.02096743
176	0x3d95ad2d	0.07308421
177	0xbe9010f2	-0.28137928
178	0xbc969da1	-0.01838571
179	0x3de3c4e6	0.1112154
180	0x3ca828be	0.02052724
181	0x3ce70398	0.028199956
182	0x3c08a4ee	0.008340104
183	0xbda0283e	-0.078201756
184	0x3db2693f	0.0871148
185	0x3ebc64ee	0.36795753
186	0x3e505b46	0.20347318
187	0xbbc1a88b	-0.0059099845
188	0x3d2c0327	0.041995194
189	0xbce1a7d5	-0.027545849
190	0xbb62e721	-0.0034622627
191	0x3d1e30ca	0.038620748
192	0x3d72499d	0.059152234
193	0x3e942414	0.28933775
194	0x3c85f8af	0.016353933
195	0x3c5c74b8	0.013455562
196	0x3bc9bde0	0.006156668
197	0x3cad60c3	0.021164304
198	0x3be76fd1	0.00706289
199	0xbd9a55c0	-0.07535887
200	0x3f0319d5	0.5121129
201	0xbe90b901	-0.28266147
202	0x3e42b5e9	0.19014706
203	0x3e285f3d	0.1644258
204	0x3de782e4	0.11304262
205	0x3cded86c	0.027202807
206	0xbcb6a01d	-0.022293145
207	0xbcc968f6	-0.024586182
208	0xbaa3ffee	-0.0012512186
209	0x3bb82780	0.005619943
210	0xb9b9c1be	-0.000354303
211	0xbb2c6d59	-0.0026310293
212	0xb867b790	-5.5245648e-05
213	0x3a61bc0c	0.000861109
214	0xb8c9b151	-9.6174546e-05
215	0x3b089e15	0.0020846177
216	0xbba015f1	-0.004885428
217	0x3bb58743	0.005539806
218	0xbbcd702a	-0.0062694745
219	0x3c2c5d7d	0.010520336
220	0xbb1cab73	-0.0023905903
221	0xb87811f3	-5.9144524e-05
222	0x390907b2	0.00013068205
223	0xba248754	-0.0006276269
224	0x3dc6ddee	0.097102985
225	0xbdb359b5	-0.08757345
226	0x3ce6732d	0.028131092
227	0x3d77b998	0.06047973
228	0x3db19827	0.08671599
229	0x3dc8fa95	0.0981342
230	0xbd6d486d	-0.0579304
231	0xbdb631ef	-0.08896243
232	0xbdd68b94	-0.10475841
233	0x3d59e93d	0.05320095
234	0xbeb39d46	-0.35080928
235	0xbf33633e	-0.70073307
236	0xbd291e0c	-0.04128842
237	0xbd92150a	-0.07132919
238	0x3d4fc9e9	0.050729666
239	0x3dc4ef2a	0.096159294
240	0x3d14ac32	0.03629703
241	0xbe24a94e	-0.1608021
242	0x3ccf924f	0.02533832
243	0x3bc3cdf6	0.00597548
244	0x3cf635e6	0.030054998
245	0x3d1dc054	0.038513497
246	0xbcd80f2c	-0.026374422
247	0xbc8e4693	-0.017367637
248	0xbe963153	-0.29334506
249	0xbe86eeae	-0.26353973
250	0x3e2bbb43	0.16770653
251	0x3e00db9c	0.12583774
252	0xbcf17a78	-0.029477343
253	0xbcf17c8f	-0.02947834
254	0x3cc0100c	0.023445152
255	0x3cb24829	0.021762924

fc1.bias f4 [200]
0	0x3daafd12	0.083490506
1	0x3c55714e	0.013027502
2	0xbcbabff8	-0.022796616
3	0x3d44e15a	0.048066474
4	0x3db6214f	0.08893072
5	0x3d21462b	0.039373558
6	0xb08dfe47	-1.033137e-09
7	0x3e0e5318	0.13898885
8	0x3d9bf25a	0.07614584
9	0x023c637a	1.3840607e-37
10	0x3dd07c5f	0.10179972
11	0x3ccde0cd	0.025131607
12	0x3d4ef0e1	0.05052269
13	0x3994704f	0.00028312436
14	0x3e0ad0a8	0.13556159
15	0x3d8fd072	0.0702218
16	0x3d480239	0.048830245
17	0xa88222db	-1.4448015e-14
18	0x3d8ef0f0	0.06979549
19	0x3de4f0bb	0.11178728
20	0x88f0e8ac	-1.44991755e-33
21	0x3dfa9ceb	0.12236961
22	0x249daf6e	6.8385086e-17
23	0x3d099641	0.03359056
24	0x3d608efd	0.054823864
25	0x3d2113cb	0.039325517
26	0x3de73dec	0.112911075
27	0x3dbb6a3a	0.091511205
28	0xb8b27993	-8.5103464e-05
29	0x3d78563a	0.060629107
30	0x17225ab3	5.24595e-25
31	0x3e91cb12	0.28475243
32	0x3df2eecc	0.11861953
33	0x0ccbc92e	3.1398183e-31
34	0x3da9f1d1	0.08298076
35	0x3c916cfd	0.017752165
36	0x3d68ffb6	0.05688449
37	0x3d8c6784	0.068556815
38	0x82a4496a	-2.4139772e-37
39	0x3d8dec67	0.06929856
40	0x3e010f51	0.12603499
41	0x94d317de	-2.131497e-26
42	0x3d50f785	0.051017303
43	0x3ddfff31	0.10937346
44	0x3da7fc23	0.08202388
45	0x074ca1c8	1.5394797e-34
46	0x3d9ea91d	0.077470995
47	0x3df90efc	0.12161061
48	0x3cdfab58	0.027303383
49	0x3d414156	0.04718145
50	0x3d3c1a5b	0.045923572
51	0x3deadf6f	0.11468398
52	0x3dba0cc3	0.09084465
53	0x3c8d7db0	0.017271847
54	0x3d723d4e	0.059140496
55	0xbc8bb3f0	-0.017053574
56	0x3daa9bb9	0.08330483
57	0x3db881d2	0.09009136
58	0xbae071f7	-0.0017123808
59	0x1782a573	8.442818e-25
60	0x9a847766	-5.478682e-23
61	0x3cbafa4b	0.022824427
62	0x3d894ff9	0.06704707
63	0x3d9189cb	0.0710636
64	0x3d9ea587	0.077464156
65	0x3db340a0	0.087525606
66	0x3d3bbd83	0.04583503
67	0x3d95b404	0.07309726
68	0x3d828817	0.06373613
69	0xba948ea7	-0.0011334018
70	0x3da95dd0	0.082698464
71	0x0000e2ad	8.1316e-41
72	0x3e07b0ab	0.13250987
73	0x8030266b	-4.421886e-39
74	0x91359092	-1.4322932e-28
75	0x3d952841	0.072830684
76	0x3cf034d8	0.029322073
77	0xa62e4ad2	-6.046978e-16
78	0x3d7f406f	0.062317308
79	0x3e127bc4	0.14305025
80	0x3da02b76	0.078207895
81	0x3e842298	0.25807643
82	0x3dbee166	0.09320335
83	0x3ceabec3	0.028655415
84	0x3d4d31ee	0.050096445
85	0xa5aed2e8	-3.0327104e-16
86	0x3e00e16b	0.1258599
87	0x3db19888	0.08671671
88	0x3d32c9b9	0.04364941
89	0x3d0d178f	0.034446295
90	0x3c6578ab	0.01400582
91	0x3d2d6077	0.042328324
92	0x3c1b2c28	0.009470977
93	0x3c827d5e	0.01592892
94	0x3e0926f8	0.13393772
95	0x3d8989cb	0.06715735
96	0xbcffdcfe	-0.031233307
97	0xbcac2731	-0.021014782
98	0x3c844777	0.016147358
99	0x3d2cc994	0.042184427
100	0x3c257fa8	0.010101236
101	0x3db432db	0.087987624
102	0x3cdf9270	0.027291507
103	0xb6a63c18	-4.9541813e-06
104	0x3dd56283	0.1041918
105	0x196f5a93	1.2374302e-23
106	0x3d8a5275	0.06754009
107	0x3a3a6c15	0.00071114424
108	0x3e089580	0.1333828
109	0x3d8ac15c	0.067751616
110	0x3da86305	0.082220115
111	0x3e29ab75	0.16569312
112	0x279bd61a	4.325327e-15
113	0x3dcb5d29	0.09929878
114	0x3e0aa5c4	0.13539797
115	0xbd17b730	-0.037039936
116	0x3b994b29	0.0046781492
117	0x1ec78344	2.1124235e-20
118	0x3ca31de7	0.01991172
119	0x3d447a8e	0.04796844
120	0xa7cd8760	-5.7045704e-15
121	0x3c86aedf	0.016440807
122	0x3c85ef56	0.016349476
123	0x3aff6f56	0.0019488137
124	0x3d327a18	0.04357347
125	0xbb9f1774	-0.0048550908
126	0x3da25e45	0.07928137
127	0x3d44ae35	0.0480177
128	0xb8f05337	-0.00011459592
129	0x3c5e943d	0.013585147
130	0x3e31660e	0.17324087
131	0x3d83e1a4	0.06439522
132	0x3db1c5a1	0.08680273
133	0x8814ce4c	-4.477963e-34
134	0x3d9c9b3d	0.07646797
135	0x80015269	-1.21399e-40
136	0x3cbb354c	0.022852562
137	0x3d8b929f	0.06815075
138	0x3d5af163	0.05345286
139	0x3c91aa47	0.01778139
140	0x3d9a9d97	0.07549589
141	0x3dcc6317	0.099798374
142	0xac8a552c	-3.931652e-12
143	0x3d4bb065	0.04972877
144	0x3d0a128c	0.033709094
145	0x3dc111f0	0.094272494
146	0x3d64f689	0.055899177
147	0x3da69937	0.08134692
148	0x3dab4382	0.083624855
149	0x3d91ae74	0.071133524
150	0x3d87237c	0.06598565
151	0x9eabfb2a	-1.8209208e-20
152	0x3d06fbb2	0.03295488
153	0x3e2f9d2b	0.17149799
154	0x3dd592cd	0.10428391
155	0x3defb359	0.1170413
156	0x3d51d777	0.051230874
157	0x3d52b5be	0.051442854
158	0x3e012ab3	0.12613945
159	0x3daf59b3	0.08562031
160	0x3d98c683	0.07459738
161	0x3d5fab62	0.054606803
162	0x3d2f8215	0.042848665
163	0x3d8ec1d7	0.06970566
164	0x3df90fae	0.12161194
165	0x3c2a5a6c	0.010397535
166	0xb058c876	-7.8865214e-10
167	0x3da357c1	0.07975722
168	0x9b435485	-1.6157332e-22
169	0x3ddd4bf6	0.10805504
170	0xbb8036fc	-0.0039128046
171	0x3c003d68	0.00782714
172	0x3c71c98c	0.014757525
173	0x3d4ba231	0.049715225
174	0x3da95e2d	0.08269916
175	0x3d153b0a	0.036433257
176	0x3d7821e3	0.060579192
177	0x3de1d1a7	0.11026316
178	0x3d8a5b74	0.067557245
179	0x3d91d58f	0.07120811
180	0xb4fad2c8	-4.6719492e-07
181	0x3e19beea	0.15014234
182	0x8c09f041	-1.0626395e-31
183	0x3d7dd784	0.06197311
184	0x3d7df14e	0.061997704
185	0x91a62415	-2.621242e-28
186	0x3d5cd148	0.053910524
187	0x3da08bc4	0.07839158
188	0x3d333361	0.04375017
189	0xbce9b4ba	-0.02852856
190	0x3e0cbced	0.13743944
191	0x3cd1fc30	0.025632948
192	0x367bab95	3.7501788e-06
193	0x3d50290e	0.050820403
194	0xb16df1ea	-3.4625551e-09
195	0xbc176fbe	-0.00924295
196	0x93cc2a7c	-5.1538733e-27
197	0x3d9bbc5a	0.076042846
198	0x3e09243a	0.13392726
199	0x3c35cc1c	0.011096027

fc2.weight f4 [5, 200]
0	0xbe04e8d2	-0.12979439
1	0xbc16ec23	-0.009211573
2	0x3def23e1	0.11676765
3	0xbdd465ee	-0.10371004
4	0xbdf583f3	-0.11988058
5	0xbd6b5aa6	-0.057459496
6	0x2fd4ab53	3.8684309e-10
7	0xbde0845f	-0.10962748
8	0xbe410a42	-0.1885157
9	0x80fe95de	-2.3379978e-38
10	0xbe270556	-0.16310629
11	0x3ed6fe07	0.41990682
12	0xbe14ce90	-0.14531922
13	0xbbe11b92	-0.0068697417
14	0xbe1a8e26	-0.15093288
15	0xbd45bbb6	-0.04827472
16	0x3ecd056c	0.400432
17	0xa757daa7	-2.9955775e-15
18	0xbe36674f	-0.17812847
19	0xbe37d6ed	-0.17953081
20	0x08d8dd5a	1.3052067e-33
21	0xbe258ed3	-0.16167764
22	0x25a7fa46	2.9139474e-16
23	0xbd4d8a79	-0.050180886
24	0xbdaff9a4	-0.08592537
25	0xbd5fc762	-0.054633506
26	0x3ee8d6c2	0.45476347
27	0xbe19934f	-0.149976
28	0x351a498e	5.7476507e-07
29	0xbe050733	-0.12991028
30	0x156e40c0	4.8114796e-26
31	0xbe9fd548	-0.31217408
32	0xbe4ea7e4	-0.20181233
33	0x8d5ff387	-6.9010316e-31
34	0xbe241fe1	-0.16027786
35	0xbce74a79	-0.028233754
36	0xbdc8282b	-0.097732864
37	0xbddb3a87	-0.107045226
38	0x804e3aa9	-7.184212e-39
39	0xbe4669f9	-0.19376363
40	0xbe40cc7b	-0.18828003
41	0x138a492d	3.4908254e-27
42	0x3e5bcb8d	0.21464367
43	0xbe10bd62	-0.14134744
44	0x3e117987	0.14206515
45	0x052aa164	8.0230044e-36
46	0xbdd64d83	-0.10464003
47	0xbe83c96d	-0.25739613
48	0xbca67ef9	-0.020324217
49	0xbddab6a1	-0.10679365
50	0x3ed96d48	0.42466187
51	0xbde5da4f	-0.1122328
52	0xbdb4dfde	-0.08831762
53	0xbe1b1d2c	-0.15147847
54	0xbe04d6a6	-0.12972507
55	0xbd33c227	-0.04388633
56	0xbe0b4610	-0.13600945
57	0x3f08ff08	0.53514147
58	0xbdc85efb	-0.09783741
59	0x12c6eb60	1.2553581e-27
60	0x99868844	-1.3910313e-23
61	0xbdc033a0	-0.09384847
62	0xbdea1bda	-0.114310935
63	0xbe2b89fb	-0.16751854
64	0xbdbd5d3c	-0.09246299
65	0xbe06292c	-0.13101643
66	0xbe194b2d	-0.14970084
67	0xbdcb30bc	-0.09921405
68	0xbe740c43	-0.23832802
69	0xba618283	-0.00086025166
70	0xbe206fcf	-0.15667652
71	0x00076cf7	6.81938e-40
72	0xbe49a870	-0.1969316
73	0x0000b67d	6.5464e-41
74	0x0fa90495	1.6666452e-29
75	0xbdd035f7	-0.10166543
76	0xbde260bd	-0.110536076
77	0x925fb012	-7.0583416e-28
78	0x3ef6e7ca	0.48223716
79	0xbdf405af	-0.119151466
80	0xbe3bb96e	-0.18332455
81	0xbe171f4c	-0.14758033
82	0x3f070a67	0.5275025
83	0xbdcb090e	-0.099138364
84	0xbe0c8121	-0.13721134
85	0x26cb0966	1.4088502e-15
86	0xbe3d3e82	-0.18480876
87	0x3ed7e328	0.42165494
88	0xbd9d9c83	-0.07695868
89	0xbd5c1643	-0.053732168
90	0xbd46bf01	-0.048522
91	0xbc165f5d	-0.00917801
92	0xbd87c0ff	-0.06628608
93	0x3ec99058	0.39367938
94	0xbe0b30bd	-0.13592811
95	0xbe2c1b02	-0.16807178
96	0x3e8ce81f	0.27520844
97	0xbdb61d38	-0.08892292
98	0xbd6a2d79	-0.057172272
99	0x3eea18e9	0.4572213
100	0xbde0da63	-0.10979154
101	0x3e81223e	0.25221437
102	0xbe215c29	-0.15757813
103	0xb316f1d0	-3.5144524e-08
104	0xbdd991e7	-0.10623532
105	0x9961cc8c	-1.1673535e-23
106	0xbdd73179	-0.10507483
107	0xbaff9e20	-0.0019502081
108	0xbe015622	-0.12630513
109	0xbda52d54	-0.08065286
110	0x3f151cad	0.5824688
111	0xbdf8af04	-0.121427566
112	0xa7bb61cd	-5.2008962e-15
113	0xbe022a89	-0.12711538
114	0xbe7592c7	-0.23981772
115	0x3e4fc84a	0.20291248
116	0x3edaac10	0.42709398
117	0x1d95d12f	3.9656262e-21
118	0x3ef9da79	0.48799494
119	0xbdacdd32	-0.08440627
120	0x80001caa	-1.0283e-41
121	0xbd7cd3c5	-0.061725397
122	0xbe0765fd	-0.13222499
123	0x3aa40076	0.0012512344
124	0x3f0333f4	0.5125115
125	0x39137821	0.00014063764
126	0xbdd0397e	-0.10167216
127	0xbe0ed83d	-0.13949676
128	0xb374f764	-5.7035678e-08
129	0x3ee1318d	0.43983117
130	0xbe303585	-0.17207916
131	0xbddcab43	-0.10774853
132	0xbe2146a2	-0.157496
133	0x06959352	5.626404e-35
134	0xbdd1a6c6	-0.10236888
135	0x800094e7	-5.3416e-41
136	0x3eee0918	0.46491313
137	0xbe6cecd0	-0.23137212
138	0xbdfbf9c0	-0.123034954
139	0xbd7213a0	-0.059100747
140	0xbdc7653a	-0.09736104
141	0x3ef1c643	0.47221574
142	0x2c9f2450	4.5230833e-12
143	0x3ee864b1	0.4538932
144	0xbdbfd3db	-0.0936658
145	0xbdbf7bc8	-0.09349781
146	0xbe547aa0	-0.20749903
147	0xbddc5ed8	-0.107602775
148	0xbda90ba9	-0.08254177
149	0xbe223906	-0.15842065
150	0xbdeff453	-0.11716523
151	0x8651c7b2	-3.9455244e-35
152	0xbe13aa80	-0.1442051
153	0xbdd0f214	-0.10202423
154	0xbe32f931	-0.17477871
155	0x3f0b512d	0.5442074
156	0xbe3d4cb8	-0.18486297
157	0xbdeda2ae	-0.11603294
158	0xbe0e7d64	-0.1391502
159	0xbd999be8	-0.0750044
160	0xbe1cb3d9	-0.15302981
161	0xbe3067d6	-0.1722711
162	0xbe2b48d2	-0.16726997
163	0xbddceca3	-0.10787322
164	0xbe2c3c14	-0.16819793
165	0xbd901919	-0.07036037
166	0x303d9009	6.8962486e-10
167	0xbd800fa7	-0.062529854
168	0x035d603a	6.5056526e-37
169	0x3e8e2565	0.27762905
170	0x3c711c2a	0.0147161875
171	0xbdba4b37	-0.09096377
172	0xbda691e6	-0.08133297
173	0x3ec2482a	0.37945682
174	0xbd986cc8	-0.074426234
175	0xbda176a4	-0.07883957
176	0xbe2f28fa	-0.17105475
177	0xbe2b7c3f	-0.16746615
178	0xbda69023	-0.08132961
179	0x3ee7a51b	0.45243153
180	0xb2b9a370	-2.1611157e-08
181	0xbe5a228a	-0.21302238
182	0x89837b32	-3.1652955e-33
183	0xbe4a5e40	-0.19762516
184	0xbda2b17e	-0.0794401
185	0x8fb8e8da	-1.8233492e-29
186	0xbe205f5b	-0.15661375
187	0x3f070a35	0.5274995
188	0xbd8b4a31	-0.0680126
189	0x3ebd5b7d	0.36983863
190	0xbe489003	-0.19586186
191	0x3ed5b9d4	0.41743338
192	0xb71f248c	-9.485648e-06
193	0xbdc22c38	-0.0948109
194	0xb1803a51	-3.73192e-09
195	0x3ed0ccb7	0.40781185
196	0x14ea1728	2.3637095e-26
197	0xbe38d82a	-0.1805121
198	0xbe117bf0	-0.14207435
199	0x3e8d6f78	0.27624106
200	0xbe214d57	-0.15752159
201	0xbc75bed8	-0.014999114
202	0xbcd96172	-0.026535723
203	0xbdc8121b	-0.09769078
204	0xbdd8bc2f	-0.10582768
205	0xbd4fdd5a	-0.050748207
206	0xaf8cfed9	-2.5646932e-10
207	0xbdc8e180	-0.09808636
208	0x3ed6352c	0.41837442
209	0x0311f75d	4.289563e-37
210	0x3ed67b33	0.4189087
211	0xbdb4b664	-0.08823851
212	0xbe0f0611	-0.13967158
213	0x3c25f3db	0.01012894
214	0xbe5fcdd5	-0.21855862
215	0xbd94f39e	-0.07273029
216	0xbdb5d1b9	-0.08877892
217	0x2760d64d	3.1202417e-15
218	0xbe3f2242	-0.18665412
219	0x3ede3e71	0.43407014
220	0x89a50508	-3.9727036e-33
221	0xbe16171b	-0.14657252
222	0x261428fc	5.140336e-16
223	0x3e421a5e	0.18955371
224	0xbdd58546	-0.104258105
225	0xbd794b77	-0.060862985
226	0xbe10cf93	-0.14141683
227	0xbe2ae39a	-0.16688386
228	0xb64ae983	-3.0236267e-06
229	0xbd094e3e	-0.033521883
230	0x95c4b16e	-7.9443704e-26
231	0xbe907791	-0.28216222
232	0xbe262d2e	-0.16228172
233	0x0e0b9ea6	1.720946e-30
234	0x3f05528b	0.52079076
235	0xbd8b1602	-0.06791307
236	0x3eec93bc	0.46206462
237	0xbe0c5b2c	-0.13706654
238	0x01a6f2bc	6.1327076e-38
239	0x3f01cbd2	0.5070163
240	0xbe23034e	-0.1591923
241	0x93e85fc7	-5.8659477e-27
242	0xbd97b133	-0.07406845
243	0xbe0d1f9d	-0.13781591
244	0xbe178513	-0.14796858
245	0x86a94472	-6.3671306e-35
246	0xbdf78ef5	-0.12087814
247	0x3f05d9f4	0.52285695
248	0xbd96679b	-0.0734398
249	0x3e8c05ce	0.2734818
250	0xbdd8e32e	-0.10590206
251	0xbe3a3497	-0.18184124
252	0xbde038f3	-0.10948362
253	0xbde57a0f	-0.112049215
254	0xbd180ae2	-0.037119754
255	0xbd090ff0	-0.033462465

fc2.bias f4 [5]
0	0xbd59f257	-0.05320963
1	0xbb9de40b	-0.0048184446
2	0x3bebb1a0	0.0071928054
3	0x3c32ba82	0.010908725
4	0x3d0a10de	0.033707492
