Assignment/A2/a2_files/model.pt (torch, 270171 bytes, 5 tensors)

embedding.weight f4 [3165, 16]
0.0 0.0 0.0 0.0 0.0 0.0 0.0 0.0
0.0 0.0 0.0 0.0 0.0 0.0 0.0 0.0
-0.6224094 -0.8104495 0.27573976 0.22610961 0.34132463 -0.66279185 -0.19883999 0.897951
0.28493106 -0.36092958 -0.086916335 0.08079504 0.44685805 0.6631939 0.3262386 -0.29655662
-0.33114234 -0.028377539 -0.1455738 0.27002805 0.18189576 0.07038804 0.21558346 0.15287158
0.06295543 0.32841948 -0.21531723 -0.0693685 0.1755687 1.0196205 -0.7001514 -0.74177665
-0.33051533 0.3780945 0.44038567 0.07037918 -0.09715253 -0.20695587 0.25859234 -0.1859103
-0.20375927 0.3195609 0.6627257 1.5423151 -0.7226685 -0.5280299 0.8270487 -0.21668747
-0.2865872 0.39038572 0.44779837 0.5326527 -0.6530342 1.1232555 -0.17275678 0.17678165
-0.7427036 -0.2661481 -0.20506382 -0.19554 -0.5230198 0.50710815 -0.06919245 0.3912878
-0.043364894 0.28296658 -0.27041554 -0.06780841 0.42280465 -0.112123705 0.37665862 0.23023896
-0.15334442 1.0140083 -0.84481 -0.068512686 -0.5645889 -0.5094572 -0.06355804 0.34683427
0.7089299 -0.6435026 0.08851466 0.20217393 -1.1585138 -0.8052274 -0.09033636 0.10565865
0.09782292 -0.030070053 0.124369614 0.2349853 0.16846083 -0.3097219 0.36690414 -0.36891535
-0.045541704 -1.0802523 0.021053119 0.031663217 0.40934557 0.21989499 -0.4329683 -0.000724672
-0.21382652 -0.24491796 0.91656613 -0.2220949 0.14189444 0.48349547 0.37890655 0.5227552
-0.42926827 -0.21995799 -0.3733265 0.25552312 0.2784359 0.18349734 0.87013143 -0.4704943
-0.01107907 0.021102555 -0.29714382 -0.5711066 -0.09056964 -0.42917973 -0.14639457 0.12215835
-0.13465981 0.029207384 0.10932226 0.563969 0.12578121 0.18099849 -0.08369727 -0.04129831
0.13780269 -0.36790708 -0.8449165 0.030142615 -0.31149566 0.1334528 0.04397688 0.13453554
0.41651884 -0.4533096 0.12278026 -0.051108815 0.45242485 -0.23934203 0.33943665 0.26873446
0.13989145 0.08531086 -0.078419924 0.16978078 -0.16447656 -0.46652094 0.108693466 -0.60058916
0.03344685 -0.14184105 -0.61133295 -0.20679641 0.5103057 0.110207535 0.60094494 0.3552149
-0.55569893 -0.34553373 0.62599736 0.084954605 0.2880948 -0.4426379 -0.52541935 -0.50190395
-0.28385392 0.22719775 0.1602089 0.2026016 0.07690472 0.3661078 -0.12187203 0.43874168
-0.015074363 -0.4927436 0.13723202 0.26794901 0.2644376 -0.5186263 0.27988088 -0.22467735
0.55497456 -0.0042172833 0.5786107 0.5253117 -0.5556739 0.5795691 -0.32343045 -0.5500538
0.5196364 0.45284772 -0.26457122 0.124890916 0.1964334 -0.056922495 -0.56175405 -0.16586678
-0.1474669 0.70054924 0.111819975 0.13815129 -0.048749927 0.30145943 -0.154349 -0.57486117
-0.0880059 -0.24876162 -0.23779659 0.37893906 -0.42850783 0.3609099 0.501099 -0.7675794
-0.71452624 -0.8269715 0.111875415 -0.521141 0.6929929 -0.020691175 0.16751173 -0.017798303
-0.06977493 0.42379615 0.3212215 -0.26920697 -0.61395955 0.010696991 0.7344294 0.27431726
00000000: 0000 0000 0000 0000 0000 0000 0000 0000
00000010: 0000 0000 0000 0000 0000 0000 0000 0000
00000020: 0000 0000 0000 0000 0000 0000 0000 0000
00000030: 0000 0000 0000 0000 0000 0000 0000 0000
00000040: 3956 1fbf 9e79 4fbf c32d 8d3e 4789 673e
00000050: 1ac2 ae3e baac 29bf b69c 4bbe 1ee0 653f
00000060: 7ce2 913e c3cb b8be 3101 b2bd df77 a53d
00000070: 94ca e43e 13c7 293f bf08 a73e 45d6 97be
00000080: 7d8b a9be 0378 e8bc 4c11 15be 1e41 8a3e
00000090: e242 3a3e 9b27 903d e9c1 5c3e 5e8a 1c3e
000000a0: c7ee 803d 9926 a83e 1f7c 5cbe 1211 8ebd
000000b0: 48c8 333e ed82 823f 1f3d 33bf 13e5 3dbf
000000c0: 4e39 a9be 9a95 c13e 3b7a e13e f622 903d
000000d0: e8f7 c6bd 3dec 53be 3766 843e 455f 3ebe
000000e0: 45a6 50be 7c9d a33e 64a8 293f 956a c53f
000000f0: ce00 39bf f82c 07bf 77b9 533f 52e3 5dbe
00000100: 8fbb 92be a3e0 c73e d445 e53e ed5b 083f
00000110: 402d 27bf d6c6 8f3f 27e7 30be 4006 353e
00000120: d321 3ebf 9044 88be 40fc 51be a33b 48be
00000130: a0e4 05bf d7d1 013f c5b4 8dbd e056 c83e
00000140: 639f 31bd ffe0 903e e873 8abe 23df 8abd
00000150: da79 d83e 1da1 e5bd 66d9 c03e c3c3 6b3e
00000160: 5206 1dbe 06cb 813f 7845 58bf 6150 8cbd
00000170: e688 10bf c96b 02bf b82a 82bd 4394 b13e
00000180: 6e7c 353f 96bc 24bf 2d47 b53d af06 4f3e
00000190: 2e4a 94bf 6223 4ebf 4502 b9bd 9063 d83d
000001a0: 6257 c83d 7955 f6bc 7fb5 fe3d fd9f 703e
000001b0: ff80 2c3e de93 9ebe dcda bb3e 79e2 bcbe
000001c0: f089 3abd b545 8abf 9777 ac3c 4ab1 013d
000001d0: be95 d13e 272c 613e 05ae ddbe eaf7 3dba
000001e0: 57f5 5abe c6cb 7abe 14a4 6a3f d86c 63be
000001f0: c74c 113e b88c f73e 0a00 c23e 49d3 053f
00000200: 0dc9 dbbe ab3c 61be a724 bfbe edd3 823e
00000210: 268f 8e3e bae6 3b3e efc0 5e3f a1e4 f0be
00000220: fd84 35bc 44df ac3c 3c23 98be 0b34 12bf
00000230: 937c b9bd 72bd dbbe 75e8 15be 282e fa3d
00000240: 43e4 09be 5344 ef3c 59e4 df3d 4660 103f
00000250: cacc 003e ab57 393e 7969 abbd 6b28 29bd
00000260: 261c 0d3e 515e bcbe 734c 58bf a5ed f63c
00000270: 5c7c 9fbe daa7 083e 1a21 343d afc3 093e
00000280: f541 d53e 3218 e8be 3874 fb3d 7a57 51bd
00000290: 3ba4 e73e 1416 75be a4ca ad3e 9097 893e
000002a0: b43f 0f3e 76b7 ae3d a09a a0bd 03db 2d3e
000002b0: 8b6c 28be d5db eebe ae9a de3d 36c0 19bf
000002c0: 90ff 083d c83e 11be 5180 1cbf 70c2 53be
000002d0: 65a3 023f 7db4 e13d 87d7 193f bade b53e
000002e0: 4942 0ebf cce9 b0be 5d41 203f aefc ad3d
000002f0: 2981 933e 6fa1 e2be e281 06bf c77c 00bf
00000300: 4d55 91be 87a6 683e cd0d 243e cb76 4f3e
00000310: 3980 9d3d 7b72 bb3e 0b98 f9bd c0a2 e03e
00000320: 76fa 76bc e448 fcbe 8d86 0c3e 9d30 893e
00000330: 5d64 873e b1c4 04bf 8c4c 8f3e d211 66be
00000340: d012 0e3f 2331 8abb d51f 143f d47a 063f
00000350: a540 0ebf a45e 143f ad98 a5be 53d0 0cbf
00000360: e406 053f a8db e73e e175 87be cfc6 ff3d
00000370: d625 493e 9027 69bd 1dcf 0fbf fbd8 29be
00000380: 9001 17be 3257 333f df01 e53d 8877 0d3e
00000390: 01ae 47bd e458 9a3e aa0d 1ebe 1a2a 13bf
000003a0: 703c b4bd 5ebb 7ebe f380 73be 4d04 c23e
000003b0: 6165 dbbe 2fc9 b83e 0648 003f 1580 44bf
000003c0: 31eb 36bf 67b4 53bf f01e e53d 7f69 05bf
000003d0: fc67 313f 8a80 a9bc 3288 2b3e bfcd 91bc
000003e0: 29e6 8ebd cffb d83e 2577 a43e 7fd5 89be
000003f0: 742c 1dbf 6f42 2f3c 9103 3c3f 5073 8c3e

fc1.weight f4 [200, 16]
0.01604805 0.075842254 -0.26236448 0.16788432 -0.19601743 -0.19954069 0.15555134 -0.22445044
0.04303439 -0.11589094 0.05008211 0.15812789 0.32983604 0.36831373 0.32715774 -0.13547982
-0.32761914 -0.15117055 -0.28344357 -0.10838233 0.08115017 0.045104686 0.2104452 0.26562887
0.043277804 0.13726775 0.054611847 0.09393965 -0.41018635 -0.2647786 -0.26966408 0.15757424
-0.12237518 0.051215343 0.045702536 0.3603739 0.011573495 0.061453193 -0.030265225 -0.010974914
0.24207444 0.24086274 -0.20378387 -0.22203675 -0.19088487 -0.10353761 -0.16972175 -0.038860746
0.15920286 0.118642166 0.011725752 0.108971514 -0.08663134 0.00048071542 -0.04272906 -0.24240428
0.026018256 -0.08568244 -0.09173007 0.118634254 0.17815076 0.24753846 0.26442474 -0.10133315
0.029677287 0.02682132 -0.023402046 -0.16341303 0.14932017 -0.01733916 -0.13969296 0.023790596
-0.23375101 0.0140643185 -0.16050684 0.11208709 -0.27178514 0.14595261 -0.00685033 0.38312277
0.18224637 0.08295117 0.15595259 0.03570556 -0.032821383 0.11330596 -0.16304564 0.103720106
-0.15087833 -0.080051154 0.011883946 -0.09697433 0.079619296 -0.060302533 -0.0028258287 0.08371525
-0.022046305 -0.035022616 0.040641136 -0.019439632 0.06312707 0.044037394 -0.1433636 0.09626347
-0.13605948 -0.0979351 0.08104272 -0.12040651 0.043109816 0.029384423 0.07451699 0.12426525
0.22805937 0.115058176 0.3609766 -0.22299127 0.17405401 0.06217843 -0.3907056 -0.054556288
-0.27128184 -0.03767544 -0.012183092 -0.12813835 -0.045939367 -0.058148105 0.07280797 0.2147611
-0.21429417 -0.12449541 -0.30905527 -0.22479615 -0.0442787 -0.0895232 0.24711598 0.21453261
-0.031059152 -0.008519635 -0.062156618 0.20681009 -0.27461347 -0.07241646 -0.19799505 0.21723007
0.09547365 0.06857264 -0.18780482 0.081371084 -0.033218965 -0.0686192 0.056575816 -0.08724477
0.07502702 -0.14828835 0.2758576 0.1477312 0.43256313 0.23636618 0.13320507 -0.2716754
0.15329579 0.15755084 0.19770557 -0.039274756 0.04397352 -0.0507432 -0.37456152 -0.1244419
-0.19913444 -0.029312901 -0.2189282 -0.11467558 -0.21014339 0.097150415 0.06567371 0.33454207
0.13465485 0.13589194 0.34343088 0.053964935 0.11039746 0.205251 -0.27566102 -0.03660532
0.048606772 0.09230176 0.06671876 -0.13457167 0.2744596 -0.08840119 -0.08233008 -0.118034
0.08421846 0.040280696 -0.116995305 -0.21485525 -0.009121107 0.0184496 0.009285368 0.04463825
-0.0013100194 -0.09898679 0.23565045 0.17151311 0.1084869 -0.053895604 0.05718374 0.099306375
0.10875703 -0.057022482 0.09963527 -0.065821774 0.051844902 0.08920483 -0.094987124 0.1153837
0.07418869 0.062164333 -0.07570224 0.097882435 -0.10460823 -0.06755248 -0.052878924 0.065999
-0.06039902 -0.022825971 -0.10177279 0.025750337 0.026181059 -0.15309155 0.06708196 -0.10642292
0.09607102 -0.051978514 -0.076604284 -0.0018211749 0.07078058 0.16227028 0.10458137 -0.043523602
-0.028828327 -0.033253964 0.117855705 -0.057818938 0.015454216 0.07926741 -0.105041355 0.098830484
-0.024658661 -0.042404167 0.04233035 -0.015672995 -0.010187482 -0.059277028 0.031004597 0.012844519
00000000: 3377 833c 2f53 9b3d a354 86be dee9 2b3e
00000010: cbb8 48be 6554 4cbe da48 1f3e 56d6 65be
00000020: d444 303d 3b58 edbd e622 4d3d 47ec 213e
00000030: 45e0 a83e 9e93 bc3e 3881 a73e 39bb 0abe
00000040: b2bd a7be 74cc 1abe 841f 91be 8ef7 ddbd
00000050: 0f32 a63d b1bf 383d f27e 573e 8200 883e
00000060: 1144 313d eb8f 0c3e acb0 5f3d 6e63 c03d
00000070: f203 d2be 1091 87be 6911 8abe 245b 213e
00000080: d79f fabd 2ec7 513d 9532 3b3d ee82 b83e
00000090: c29e 3d3c 58b6 7b3d c7ee f7bc 20d0 33bc
000000a0: 5de2 773e b9a4 763e b8ac 50be 9a5d 63be
000000b0: 5377 43be 870b d4bd 8acb 2dbe 722c 1fbd
000000c0: 1306 233e aafa f23d 5e1d 403c 752c df3d
000000d0: c66b b1bd 8808 fc39 ab04 2fbd d438 78be
000000e0: 3d24 d53c 467a afbd fadc bbbd 84f6 f23d
000000f0: 276d 363e b97a 7d3e ae62 873e c187 cfbd
00000100: c81d f33c 63b8 db3c a6b5 bfbc bf55 27be
00000110: 63e7 183e db0a 8ebc ac0b 0fbe 7fe4 c23c
00000120: 6d5c 6fbe 076e 663c e85b 24be eb8d e53d
00000130: 6c27 8bbe 9a74 153e bc78 e0bb ab28 c43e
00000140: cb9e 3a3e 4ee2 a93d 09b2 1f3e fe3f 123d
00000150: b76f 06bd f50c e83d 70f5 26be 356b d43d
00000160: d97f 1abe dcf1 a3bd e2b4 423c 7a9a c6bd
00000170: 710f a33d caff 76bd 8a31 39bb e772 ab3d
00000180: 749a b4bc e073 0fbd 5277 263d dd3f 9fbc
00000190: c448 813d 8e60 343d e8cd 12be c825 c53d
000001a0: 2d53 0bbe 3392 c8bd baf9 a53d b097 f6bd
000001b0: eb93 303d 9ab7 f03c 5d9c 983d c87e fe3d
000001c0: 6588 693e 9fa3 eb3d edd1 b83e d357 64be
000001d0: 373b 323e cfae 7e3d 900a c8be 6a76 5fbd
000001e0: 74e5 8abe 9051 1abd 979b 47bc b336 03be
000001f0: eb2a 3cbd b52c 6ebd 581c 953d 55ea 5b3e
00000200: ee6f 5bbe 73f7 febd 7e3c 9ebe f630 66be
00000210: 955d 35bd f157 b7bd f90b 7d3e 70ae 5b3e
00000220: c36f febc f095 0bbc f097 7ebd 06c6 533e
00000230: 239a 8cbe 154f 94bd 37bf 4abe 8f71 5e3e
00000240: b087 c33d d06f 8c3d e84f 40be e2a5 a63d
00000250: 9c10 08bd 3988 8cbd 0bbc 673d 63ad b2bd
00000260: c4a7 993d e7d8 17be 353d 8d3e d946 173e
00000270: ea78 dd3e fa09 723e e966 083e 0a19 8bbe
00000280: 92f9 1c3e 0255 213e 5473 4a3e 91de 20bd
00000290: 941d 343d 1ad8 4fbd 87c6 bfbe 65db febd
000002a0: e6e9 4bbe 9c21 f0bc b72e 60be 08db eabd
000002b0: d42f 57be ccf6 c63d f07f 863d 1949 ab3e
000002c0: f6e2 093e 4227 0b3e 2cd6 af3e 560a 5d3d
000002d0: 1018 e23d 512d 523e 7123 8dbe 76ef 15bd
000002e0: e517 473d b508 bd3d d8a3 883d 28cd 09be
000002f0: f885 8c3e af0b b5bd ac9c a8bd cfbb f1bd
00000300: ba7a ac3d 5ffd 243d 3c9b efbd 0403 5cbe
00000310: b270 15bc 9e23 973c a821 183c 99d6 363d
00000320: f5b4 abba 96b9 cabd 5a4e 713e 22a1 2f3e
00000330: 612e de3d a3c1 5cbd 7f39 6a3d 2461 cb3d
00000340: 01bc de3d 6890 69bd 940d cc3d 91cd 86bd
00000350: 525b 543d 06b1 b63d 9c88 c2bd 4a4e ec3d
00000360: 3df0 973d 07a0 7e3d c709 9bbd 9676 c83d
00000370: d73c d6bd f458 8abd 9297 58bd 7c2a 873d
00000380: f664 77bd 88fd babc 416e d0bd 5ff2 d23c
00000390: a979 d63c 08c4 1cbe 4462 893d 43f4 d9bd
000003a0: e2c0 c43d 6ce7 54bd b5e2 9cbd 7db4 eeba
000003b0: 69f5 903d 2e2a 263e c22e d63d ce45 32bd
000003c0: 6229 ecbc 4f35 08bd 555e f13d 8dd3 6cbd
000003d0: ae33 7d3c f456 a23d ec1f d7bd a367 ca3d
000003e0: f600 cabc feaf 2dbd 9762 2d3d a764 80bc
000003f0: 66e9 26bc 78cc 72bd 5afd fd3c d171 523c

fc1.bias f4 [200]
0.12438623 0.12738511 0.15655835 0.23630111 0.27837497 0.14941408 0.030581295 0.06946941
0.18269914 0.045396347 0.20334801 0.2692471 0.23953594 0.07432185 0.083371274 0.00478751
0.060132425 0.000322324 -0.07312536 0.027552158 0.24478105 0.15287918 0.14535868 0.25866643
-0.038530506 0.0060018343 0.24622077 0.17744467 -0.058971286 0.21778013 0.008171062 0.30540276
0.2636182 0.19502658 -0.0796306 0.12245468 0.18008879 0.050843384 0.22775753 0.12594903
0.08246086 0.04687529 -0.07449988 0.12508106 0.23975287 -0.10785442 -0.09280313 0.12121689
0.21383213 0.146802 0.07599253 0.10682328 0.24353345 0.14084639 0.22207259 0.27009052
-0.036003467 -0.095310576 -0.025207773 -0.09930321 0.03340912 0.14007945 -0.082974754 0.21566685
0.20488143 0.04571291 0.15492246 0.19916178 0.17682119 -0.1025169 -0.046232462 0.091441125
0.02297608 0.04199051 0.08729016 -0.008209881 0.16773765 -0.05268528 0.16673759 0.15039438
0.14551769 0.15075696 0.2969591 0.34953746 0.14161325 -0.032967225 -0.05462715 0.13173154
0.16149803 0.1836443 0.17387177 -0.06775481 -0.03630738 0.13876471 0.033721365 -0.01579147
0.04425083 0.000832726 0.20378654 0.13770348 0.19872762 0.020926673 0.08811776 0.06756567
0.11270741 0.023174701 -0.07386282 0.23491265 0.16502829 -0.084317796 0.13700935 0.011064724
-0.07750967 0.16338111 -0.03734893 0.043753617 0.15882728 0.18978176 0.2093949 0.13956688
0.16957605 0.13402241 0.07475181 0.06285811 0.029302154 -0.028611021 0.07480935 0.090826616
-0.10505293 0.08482081 0.16612399 -0.043114003 -0.10740898 0.084463954 -0.012420878 0.19870634
-0.068633616 -0.054315902 0.16223478 0.15023473 0.19971193 0.0093911635 -0.08662646 0.08706032
0.09475561 0.16047886 -0.08168961 0.12390442 0.21537839 0.21881963 0.18869418 0.16690679
-0.07353176 -0.066284336 0.19412178 0.13269043 0.050526325 0.08283625 0.09886466 0.22177476
0.07211957 -0.1030112 0.16466142 0.4131911 -0.09739874 0.040824078 0.15407111 0.17184298
0.03926727 0.29647696 -0.08193462 0.16848835 0.13073827 0.050105527 0.16852845 -0.031594705
0.11483392 0.025646305 0.19982861 0.21648455 0.16091835 0.055922795 0.16574253 0.13725588
0.23907454 0.19057529 -0.054235827 0.08004705 -0.047283612 0.026069302 0.18321234 0.15493593
0.19040783 0.039224193 -0.007687377 0.15564767 -0.07494974 0.10949001 0.15017638 0.06077384
00000000: 35be fe3d 3e71 023e d550 203e ebf8 713e
00000010: 2a87 8e3e 0100 193e a085 fa3c fa45 8e3d
00000020: 7c15 3b3e 85f1 393d 763a 503e c2da 893e
00000030: e948 753e 0e36 983d 8fbe aa3d 8be0 9c3b
00000040: 6b4d 763d 98fd a839 c0c2 95bd 10b5 e13c
00000050: e2a7 7a3e 5c8c 1c3e e8d8 143e ed6f 843e
00000060: 2ad2 1dbd 09ab c43b 4c21 7c3e 0eb4 353e
00000070: e08b 71bd c101 5f3e ebdf 053c c05d 9c3e
00000080: f7f8 863e 0cb5 473e 5e15 a3bd 85c9 fa3d
00000090: 3269 383e 2741 503d 4539 693e c8f8 003e
000000a0: 3de1 a83d 4e00 403d 6593 98bd 4015 003e
000000b0: c781 753e c7e2 dcbd 910f bebd 9040 f83d
000000c0: cff6 5a3e 4353 163e f9a1 9b3d 2ac6 da3d
000000d0: d560 793e 093a 103e ff66 633e 4e49 8a3e
000000e0: 5f78 13bd 3132 c3bd 8880 cebc 7b5f cbbd
000000f0: 00d8 083d fd70 0f3e abee a9bd c5d7 5c3e
00000100: 70cc 513e 763d 3b3d fea3 1e3e 11f1 4b3e
00000110: 9d10 353e 61f4 d1bd 405e 3dbd 7c45 bb3d
00000120: 5538 bc3c 3efe 2b3d 2fc5 b23d bd82 06bc
00000130: 6bc3 2b3e 85cc 57bd 42bd 2a3e fc00 1a3e
00000140: 9702 153e 0860 1a3e 060b 983e 93f6 b23e
00000150: 1003 113e a408 07bd b8c0 5fbd a2e4 063e
00000160: bd5f 253e 400d 3c3e 710b 323e 09c3 8abd
00000170: 0cb7 14bd 5618 0e3e 6a1f 0a3d 1d5d 81bc
00000180: 5c40 353d 4c4b 5a3a 6bad 503e 2402 0d3e
00000190: 417f 4b3e 6a6e ab3c 1677 b43d df5f 8a3d
000001a0: 24d3 e63d dfd8 bd3c 6445 97bd f18c 703e
000001b0: 2dfd 283e cfae acbd 2e4c 0c3e d148 353c
000001c0: 64bd 9ebd 614d 273e 31fb 18bd fe36 333d
000001d0: 9ea3 223e 2656 423e 9e6b 563e 9fea 0e3e
000001e0: 58a5 2d3e 2c3d 093e 7a17 993d c1bb 803d
000001f0: 120b f03c a961 eabc a535 993d 4e03 ba3d
00000200: fe25 d7bd 88b6 ad3d 681c 2a3e 4f98 30bd
00000210: 3df9 dbbd 70fb ac3d f080 4bbc ad79 4b3e
00000220: c88f 8cbd 5a7a 5ebd e020 263e 22d7 193e
00000230: 4981 4c3e 65dd 193c 3769 b1bd ae4c b23d
00000240: 3b0f c23d 9254 243e e24c a7bd 9ac1 fd3d
00000250: 278c 5c3e 4112 603e 0c39 413e 9de9 2a3e
00000260: d297 96bd 15c0 87bd dcc7 463e 00e0 073e
00000270: b1f4 4e3d 0da6 a93d 8e79 ca3d ec18 633e
00000280: 6db3 933d 89f7 d2bd 019d 283e c98d d33e
00000290: fe78 c7bd 2637 273d d1c4 1d3e 9bf7 2f3e
000002a0: b8d6 203d d4cb 973e 57cd a7bd 3688 2c3e
000002b0: 41e0 053e 743b 4d3d b992 2c3e 7369 01bd
000002c0: 0c2e eb3d 3318 d23c df9f 4c3e 20ae 5d3e
000002d0: c8c7 243e 4d0f 653d 69b8 293e ce8c 0c3e
000002e0: f5cf 743e 2b26 433e 6326 5ebd b5ef a33d
000002f0: 76ac 41bd 4a8f d53c 049c 3b3e 86a7 1e3e
00000300: 45fa 423e 8ca9 203d 64e6 fbbb 1a62 1f3e
00000310: 407f 99bd 4c3c e03d d6c7 193e fded 783d

fc2.weight f4 [5, 200]
0.25280708 -0.0014688271 0.14506333 0.16872258 0.23746523 -0.2099251 -0.011248363 -0.14041543
0.12577368 -0.1344587 0.19883603 -0.30152985 -0.15360568 -0.064264916 0.16883646 -0.0022250286
-0.034958683 -0.024005117 0.018659547 -0.054951176 -0.36187422 0.46683544 -0.012222749 -0.3628885
-0.0046506952 0.028387122 0.30831817 0.20269589 0.017869499 -0.37434468 0.04056767 -0.19699854
-0.19238268 -0.29186952 -0.03561469 -0.14919117 0.4321029 -0.045855317 0.22046754 0.038777966
-0.2112649 -0.1505378 0.769979 0.037376817 -0.3387364 -0.02029532 0.029810537 0.20726605
-0.2535148 -0.10245531 0.25864756 -0.2476167 -0.29064372 -0.11584334 -0.24844743 -0.29558226
0.012269907 0.014021618 -0.027083356 0.020346861 0.2477943 0.0854944 -0.007654932 -0.27012375
-0.028902141 -0.14525908 0.38068047 -0.29120326 -0.4086024 -0.027673151 -0.018168548 -0.17386991
-0.058056746 -0.20332427 0.07759778 0.0093400655 0.25644076 -0.016727107 0.24718648 0.14055796
0.36740413 -0.1385261 0.3231686 -0.4985473 0.51861244 -0.023039008 -0.012534193 0.4199449
0.33675438 0.13930574 0.24860153 -0.015495612 -0.049319424 0.28262153 0.20050475 -0.015206918
-0.12789209 -0.015682545 -0.15628214 -0.14407495 0.3391113 0.54400855 -0.13970819 -0.086290315
-0.20468602 -0.06565859 -0.03688816 -0.27667534 0.33067805 -0.011269101 0.49049902 -0.036710512
-0.031547267 0.35567212 -0.0021876586 -0.019879356 -0.12338755 0.17771758 0.22207028 -0.18240069
-0.14655721 -0.07148216 -0.050710052 -0.14746678 -0.068214074 -0.03358625 0.22051382 -0.14634375
0.0011674205 -0.099655345 -0.06755482 0.01494976 -0.03194006 -0.08733815 -0.032700032 -0.32786825
-0.008364116 0.053508095 -0.33820674 -0.21563181 -0.2540962 -0.017575556 0.008891926 0.27695176
-0.22482531 -0.23615476 0.0064262943 -0.21734506 -0.20147401 -0.16843484 -0.28671008 0.036682945
0.0129417265 0.016682142 -0.2009794 -0.057374332 -0.038371064 -0.10479075 -0.04377832 -0.046291362
-0.10636933 0.003995996 0.28377038 0.39237767 0.027901897 0.41132918 -0.15285477 0.07937133
-0.1289402 0.3713068 -0.018786786 -0.17750752 -0.16651165 -0.0026277364 -0.20348969 0.015451792
0.10614337 -0.06484869 0.18759736 0.06929762 0.03470571 -0.06951049 0.2444387 -0.08420976
-0.2359448 0.07145054 -0.022327641 0.017319517 -0.0007547391 -0.061350856 -0.15369134 -0.18929783
-0.072559565 -0.06233118 -0.012937755 -0.042498924 0.0025430406 0.30921012 -0.11670676 -0.12172793
-0.29756522 0.013713059 0.49200332 -0.0689738 -0.31869188 0.023532372 -0.0028720757 -0.07573402
-0.3369694 -0.14318585 -0.067197435 0.34285116 -0.2966442 0.029828647 -0.07418219 -0.029440053
0.11878957 -0.04920057 -0.01872399 -0.009168051 0.19864805 0.39045563 0.2850823 -0.31951803
-0.011833664 -0.0030442842 0.16204552 -0.31503403 -0.0031544399 0.37361613 -0.010875414 0.0037117037
0.09092669 0.21573263 -0.019117856 -0.066205636 -0.09935732 0.020414898 -0.31935456 -0.13476434
-0.017909978 -0.06981504 -0.14195074 0.18700214 0.09742434 -0.000821639 0.00918007 0.23003663
0.14591843 -0.23355326 -0.1716366 0.46547264 0.022477973 -0.08318035 -0.29749286 -0.07514244
00000000: ee6f 813e a985 c0ba 7b8b 143e 9dc5 2c3e
00000010: 162a 733e 9bf6 56be 0e4b 38bc 10c9 0fbe
00000020: d1ca 003e 8baf 09be ac9b 4b3e 1f62 9abe
00000030: cf4a 1dbe 539d 83bd 77e3 2c3e c9d1 11bb
00000040: d630 0fbd 61a6 c4bc e8db 983c 7c14 61bd
00000050: 9447 b9be 0e05 ef3e ed41 48bc 85cc b9be
00000060: dc64 98bb 1c8c e83c e1db 9d3e 838f 4f3e
00000070: 0e63 923c 1baa bfbe 492a 263d fcb9 49be
00000080: f7ff 44be ec6f 95be b6e0 11bd 92c5 18be
00000090: 973c dd3e c9d2 3bbd 3ec2 613e a5d5 1e3d
000000a0: d355 58be 9526 1abe 581d 453f 6f18 193d
000000b0: db6e adbe 5f42 a6bc 3a35 f43c 8d3d 543e
000000c0: b1cc 81be 17d4 d1bd 746d 843e 3b8f 7dbe
000000d0: 41cf 94be 463f edbd 0169 7ebe 8f56 97be
000000e0: b807 493c eeba 653c eadd ddbc 76ae a63c
000000f0: cabd 7d3e b017 af3d 39d6 fabb a94d 8abe
00000100: 2fc4 ecbc ccbe 14be 8de8 c23e 9818 95be
00000110: 5534 d1be ceb2 e2bc 35d6 94bc f40a 32be
00000120: e9cc 6dbd 3d34 50be 96eb 9e3d 1307 193c
00000130: 344c 833e 4907 89bc 741e 7d3e 6dee 0f3e
00000140: 651c bc3e c9d9 0dbe 5b76 a53e 9741 ffbe
00000150: c9c3 043f 4dbc bcbc 375c 4dbc 0503 d73e
00000160: 126b ac3e 2aa6 0e3e 6691 7e3e 4fe1 7dbc
00000170: 2a03 4abd c5b3 903e 1e51 4d3e 7026 79bc
00000180: 25f6 02be ae78 80bc 6d08 20be 6288 13be
00000190: ff9f ad3e 2544 0b3f aa0f 0fbe fab8 b0bd
000001a0: 3699 51be 0378 86bd 0a18 17bd 64a8 8dbe
000001b0: a24e a93e 09a2 38bc b022 fb3e c35d 16bd
000001c0: b537 01bd a81a b63e d25e 0fbb 08da a2bc
000001d0: 9db2 fcbd 99fb 353e 6466 633e 3fc7 3abe
000001e0: 1813 16be 3d65 92bd 58b5 4fbd 8801 17be
000001f0: d2b3 8bbd bc91 09bd 60ce 613e 23db 15be
00000200: 2204 993a 1a18 ccbd 2e5a 8abd d7ef 743c
00000210: 95d3 02bd 58de b2bd 78f0 05bd 59de a7be
00000220: a509 09bc 4e2b 5b3d 6f29 adbe 96ce 5cbe
00000230: e618 82be 9dfa 8fbc 71af 113c 9fcc 8d3e
00000240: 9b38 66be 8ed2 71be aa93 d23b b48f 5ebe
00000250: 344f 4ebe 2f7a 2cbe aacb 92be db40 163d
00000260: 8909 543c fda8 883c 8bcd 4dbe 5901 6bbd
00000270: fa2a 1dbd 889c d6bd e550 33bd 039c 3dbd
00000280: 2ad8 d9bd d8f0 823b 5a4a 913e bae5 c83e
00000290: 8592 e43c bd99 d23e f685 1cbe 708d a23d
000002a0: e608 04be ed1b be3e bfe6 99bc 88c4 35be
000002b0: 0882 2abe 1a36 2cbb 9a5f 50be 8329 7d3c
000002c0: b261 d93d 64cf 84bd 8619 403e e9eb 8d3d
000002d0: 9327 0e3d 845b 8ebd 234e 7a3e 2b76 acbd
000002e0: 839b 71be a954 923d 75e8 b6bc a9e1 8d3c
000002f0: afd9 45ba 094b 7bbd 4361 1dbe 4ad7 41be
00000300: 1c9a 94bd fb4e 7fbd e1f8 53bc 5a13 2ebd
00000310: 24a9 263b ca50 9e3e f403 efbd 7e4c f9bd
00000320: 785a 98be bdac 603c dce7 fb3e 2342 8dbd
00000330: 952b a3be f6c6 c03c 6f39 3cbb 701a 9bbd
00000340: 4187 acbe 509f 12be cf9e 89bd 308a af3e
00000350: c0e1 97be 355b f43c d5ec 97bd 442c f1bc
00000360: f247 f33d 8986 49bd 0e63 99bc 9835 16bc
00000370: 656a 4b3e cde9 c73e 4ff6 913e de97 a3be
00000380: fce1 41bc 9d82 47bb 43ef 253e 244c a1be
00000390: b8ba 4ebb 9d4a bf3e cb2e 32bc 0e40 733b
000003a0: c637 ba3d 04e9 5c3e 0d9d 9cbc d296 87bd
000003b0: da7b cbbd 253d a73c 7182 a3be aaff 09be
000003c0: f2b7 92bc 30fb 8ebd 895b 11be 7d7d 3f3e
000003d0: 6a86 c73d 4363 57ba 0168 163c b98e 6b3e
000003e0: a46b 153e 9628 6fbe 81c1 2fbe 6e52 ee3e
000003f0: ba23 b83c 765a aabd fc50 98be 48e4 99bd

fc2.bias f4 [5]
-0.10905468 -0.14981785 0.05604413 0.12167946 0.07682351
00000000: 0f58 dfbd da69 19be 888e 653d 1533 f93d
00000010: a555 9d3d
