Assignment/A2/a2_files/model.pt (torch, 144411 bytes, 5 tensors)

embedding.weight f4 [1952, 16]
0	0xbf901b8b	-1.1258405
1	0xbf93808d	-1.1523606
2	0xbe804bc7	-0.25057814
3	0xbede2554	-0.43387854
4	0x3f594514	0.8487103
5	0x3f312785	0.69200927
6	0xbea1cc78	-0.3160131
7	0xc0075fc0	-2.115219
8	0x3ea50139	0.32227495
9	0xbfa1b4fd	-1.2633358
10	0x3eb33107	0.34998342
11	0x3e9dc3b1	0.30813363
12	0x3df56f45	0.119841136
13	0x3f9e6b9e	1.2376592
14	0x3f8ef28e	1.1167772
15	0xbe7d3696	-0.24727854
16	0xbfb42f1c	-1.4076877
17	0xbfdc4860	-1.7209587
18	0x3f18dbd2	0.5971042
19	0x3f3f24c4	0.74665475
20	0x3f24c9fb	0.643707
21	0xbfc8b30b	-1.567964
22	0xbeaee0b8	-0.34155822
23	0x3ff06e14	1.8783593
24	0x3f4bb52f	0.7957334
25	0xbf2a7cac	-0.66596484
26	0xbe298bc7	-0.16557227
27	0x3e54988c	0.20761317
28	0x3fb76b90	1.43297
29	0x3fd081a1	1.628956
30	0x3f72a648	0.94784975
31	0xbf4f411f	-0.8095874
32	0xbf261a8c	-0.6488426
33	0x3c958c9f	0.01825553
34	0xbef4bc4d	-0.47799912
35	0x3e75fb88	0.24021733
36	0x3eed217a	0.46314603
37	0x3dc88f97	0.097930126
38	0x3f233719	0.6375595
39	0x3ee3f250	0.44520807
40	0xbdb3cafa	-0.08778949
41	0x3f43327e	0.7624892
42	0xbe949bc6	-0.29025096
43	0x3d5c28da	0.053749897
44	0x3f0be59f	0.5464725
45	0x4014a17f	2.322357
46	0xbfbd5140	-1.479042
47	0xbfca74e8	-1.5816927
48	0xbf2c63ac	-0.6733959
49	0x3f5f66d6	0.8726629
50	0x3f871d13	1.0555748
51	0x3e35c5d4	0.17751247
52	0xbe6b88bc	-0.23001379
53	0xbec8998b	-0.39179644
54	0x3f0b1910	0.5433512
55	0xbeca425a	-0.39503747
56	0xbee44ddb	-0.4459065
57	0x3f3e54ea	0.7434832
58	0x3fc2b1ea	1.5210545
59	0x405a48eb	3.4107006
60	0xbfc3f554	-1.5309243
61	0xbf9def70	-1.2338696
62	0x3fe8ed52	1.8197424
63	0xbf0d1e49	-0.55124336
64	0xbf11b5d7	-0.5691809
65	0x3f6bb283	0.9206926
66	0x3f8e2af1	1.1106855
67	0x3fa4f8a9	1.2888385
68	0xbfbd4e74	-1.4789567
69	0x40244b5c	2.5670996
70	0xbef1ee16	-0.47251958
71	0x3eac6177	0.3366811
72	0xbfd07d30	-1.6288204
73	0xbf0ce325	-0.55034095
74	0xbef5bf8b	-0.47997698
75	0xbefffb33	-0.49996337
76	0xbf8895b5	-1.0670687
77	0x3f8ec518	1.1153898
78	0xbe0edd02	-0.13951495
79	0x3f4e4a0a	0.80581725
80	0xbdc992ab	-0.09842428
81	0x3f2f8038	0.6855502
82	0xbf55c73a	-0.8350712
83	0xbbbf3589	-0.0058352393
84	0x3f58779e	0.8455752
85	0xbecd5fe6	-0.40112227
86	0x3f854681	1.0412141
87	0x3eb9657d	0.36210242
88	0xbe761a15	-0.24033387
89	0x4012c1bb	2.2930744
90	0xbff0b986	-1.8806617
91	0xbd404879	-0.046944115
92	0xbf8533b2	-1.0406401
93	0xbf73949f	-0.9514865
94	0x3d121902	0.03566838
95	0x3f36e5e9	0.71444565
96	0x3fd1c922	1.6389506
97	0xbfae0923	-1.3596538
98	0x3eb23861	0.3480864
99	0x3f03625b	0.51321954
100	0xc02719f2	-2.6109586
101	0xbfd996a2	-1.6999094
102	0xbe64d292	-0.22345951
103	0x3e9179f4	0.28413355
104	0x3e8131e8	0.25233388
105	0x3d8aeda5	0.06783608
106	0x3ead08ba	0.3379572
107	0x3ee8c87a	0.4546545
108	0x3eec7cb0	0.4618888
109	0xbf5be93b	-0.85902756
110	0x3f48cb02	0.78434765
111	0xbf6c7b7f	-0.9237594
112	0xbe669f56	-0.2252172
113	0xc01c4a2d	-2.4420273
114	0xbd8815ed	-0.06644807
115	0xbca1ad16	-0.019735854
116	0x3f79e9bf	0.97622293
117	0x3eb09b76	0.34493607
118	0xbf6ce01a	-0.9252945
119	0xbda01ed9	-0.07818384
120	0xbf210cf7	-0.6291041
121	0xbee8f5cf	-0.45500037
122	0x3ff60817	1.9221219
123	0xbeccff06	-0.40038317
124	0x3e005514	0.12532455
125	0x3f94e7cc	1.1633239
126	0x3f67895f	0.90443987
127	0x3fb16dae	1.3861597
128	0xbf5ad59e	-0.85482204
129	0xbed10512	-0.4082418
130	0xbf522a55	-0.82095844
131	0x3f156d49	0.5836988
132	0x3f166129	0.58742005
133	0x3ef3392e	0.47504562
134	0x3ff862e3	1.9405178
135	0xbf88e1b9	-1.0693885
136	0xbdc51d7d	-0.09624765
137	0x3e1b375c	0.15157837
138	0xbf192356	-0.59819543
139	0xbfa05e10	-1.2528706
140	0xbdff27fe	-0.124588
141	0xbf86e125	-1.0537459
142	0xbe9fcaa2	-0.31209284
143	0x3e6b51c9	0.22980417
144	0xbe86d1ff	-0.2633209
145	0x3de67adc	0.11253902
146	0x3e80fda9	0.25193527
147	0x3f924b3d	1.1429211
148	0x3e994082	0.29932028
149	0x3ec82ddd	0.3909749
150	0xbe4e1995	-0.20126946
151	0xbde05137	-0.109529905
152	0x3e552b06	0.20817193
153	0xbf4bc1ed	-0.7959278
154	0xbff280b4	-1.8945527
155	0x3e16b6ec	0.14718217
156	0xbf32b929	-0.6981378
157	0x3ea5dc01	0.32394412
158	0x3e27a5c6	0.16371831
159	0x3ecea891	0.4036298
160	0x3f7803e9	0.96880966
161	0xbf7cd3ca	-0.98760664
162	0x3e999c3e	0.30002016
163	0xbdcf5a11	-0.10124601
164	0x3f7ea87a	0.99475825
165	0xbf003ed1	-0.5009585
166	0x3f43538a	0.76299345
167	0x3f1d2873	0.61389846
168	0x3e9e38a3	0.30902585
169	0x3e630227	0.2216879
170	0xbdf9a1af	-0.12189042
171	0x3eb6080e	0.3555302
172	0xbea24dfd	-0.31700125
173	0xbf8a5edc	-1.0810199
174	0x3e74c7d6	0.23904356
175	0xbfb35b30	-1.4012203
176	0xbd8680b6	-0.065675184
177	0xbeb7ad61	-0.35874465
178	0xbfc7d5cf	-1.5612124
179	0xbeb69c51	-0.35666135
180	0x3f8a7034	1.0815492
181	0x3e078746	0.13235196
182	0x3fc95e8b	1.5731977
183	0x3f48518d	0.78249437
184	0xbf89e68e	-1.0773485
185	0xbf390671	-0.72275454
186	0x3fbc5447	1.471322
187	0x3e8df8e5	0.27728954
188	0x3f2aba57	0.6669058
189	0xbf7e725f	-0.99393266
190	0xbf9820a2	-1.1884959
191	0xbf98de8e	-1.1942918
192	0xbf065c19	-0.5248428
193	0x3f0a8c2c	0.54120135
194	0x3ec81f33	0.39086303
195	0x3ecee05a	0.40405542
196	0x3e1a01f3	0.15039806
197	0x3f645463	0.89191264
198	0xbe9a191f	-0.3009729
199	0x3f827eee	1.0194986
200	0xbdb44696	-0.08802526
201	0xbf882945	-1.0637594
202	0x3ec85b14	0.39131987
203	0x3f187265	0.5954955
204	0x3f236132	0.63820183
205	0xbf9d1c52	-1.2274268
206	0x3f1cb555	0.6121419
207	0xbf0e0084	-0.55469537
208	0x3f990080	1.1953278
209	0x3dcd332a	0.100195244
210	0x3f74a8b3	0.95569915
211	0x3f5883a6	0.8457588
212	0xbfa189ea	-1.2620213
213	0x3f7fe66a	0.9996096
214	0xbf00940d	-0.5022591
215	0xbfa5222d	-1.2901055
216	0x3f7270c7	0.94703335
217	0x3fa6a5c6	1.301934
218	0xbf29e59c	-0.6636598
219	0x3f124cec	0.57148623
220	0x3e8b1273	0.27162513
221	0xbd43cfbf	-0.047805544
222	0xbf87dc65	-1.0614134
223	0xbde92619	-0.1138422
224	0xbeaeb65e	-0.3412351
225	0x3fc95d1a	1.5731537
226	0x3e443049	0.19159044
227	0x3ec49e6a	0.3840211
228	0xbe153cc0	-0.14573956
229	0x3f230422	0.6367818
230	0xbe8f243f	-0.2795734
231	0xbfaaef62	-1.3354304
232	0xbe14fc6d	-0.14549418
233	0xbf071d50	-0.527791
234	0xbf061c1d	-0.5238665
235	0x3f5c30d8	0.8601203
236	0xbf63c185	-0.8896716
237	0x3f563948	0.83681154
238	0x3f9346af	1.1505946
239	0xbfe1a0d8	-1.7627211
240	0xbfbc2af5	-1.470061
241	0xbfe04ab4	-1.7522798
242	0x3d905d93	0.07049098
243	0xbf895611	-1.072939
244	0x3fb7518f	1.4321765
245	0xbddf33d0	-0.10898554
246	0x3f1278e3	0.5721571
247	0xbe2d1935	-0.16904147
248	0xbd8ed807	-0.06974798
249	0x3f863ace	1.0486696
250	0x3f6797e8	0.90466166
251	0xbef5ab7d	-0.47982398
252	0xbf609014	-0.87719846
253	0x3e0e5753	0.13900499
254	0x3ff3a0b4	1.9033418
255	0x3ec472a6	0.3836872

linear1.weight f4 [200, 16]
0	0x3e98d8d7	0.29852936
1	0xbce7a0d7	-0.028274937
2	0xbe82764c	-0.25480878
3	0x3e919ca7	0.2843983
4	0x3e3d7d0f	0.18504737
5	0x3e2789ac	0.16361111
6	0x3e549a27	0.2076193
7	0xbe4c6c81	-0.19963266
8	0xbe8a3c19	-0.26998976
9	0xbd17e40b	-0.037082713
10	0xbe12e42d	-0.14344855
11	0x3df3d9de	0.11906789
12	0xbe7de1bd	-0.24793144
13	0x3dc8d208	0.09805685
14	0xbe67d266	-0.22638854
15	0xbdf4230c	-0.11920747
16	0xbdacb76f	-0.08433425
17	0xbe574577	-0.21022592
18	0x3e756cf7	0.23967348
19	0xbe7ffca7	-0.24998723
20	0xbd5d7121	-0.054062966
21	0xbda5ec15	-0.0810167
22	0xbcce5ad5	-0.025189796
23	0x3cca5321	0.024697842
24	0x3e829350	0.25503016
25	0xbdbad3dd	-0.09122441
26	0x3d723d3a	0.05914042
27	0x3e8ad76d	0.27117482
28	0xbda85def	-0.082210414
29	0xbe148c4c	-0.14506644
30	0x3d8358e2	0.064134374
31	0x3c99d852	0.018779907
32	0x3c385993	0.011251825
33	0x3d5fafc0	0.054610968
34	0xbc1ee207	-0.009697444
35	0xbdd80e9f	-0.10549664
36	0xbe038e9d	-0.12847371
37	0x3e6e20b2	0.2325466
38	0xbca993b7	-0.020700319
39	0x3e5e3143	0.2169848
40	0x3e34a733	0.17641906
41	0xbd8a17e9	-0.06742842
42	0xbe7bf9f5	-0.2460707
43	0xbdefa321	-0.11701036
44	0x3d9d3637	0.07676356
45	0xbd52fcd2	-0.05151064
46	0x3e49ec0f	0.19718955
47	0xbe615c98	-0.22007978
48	0xbe769e32	-0.24083784
49	0xbe479560	-0.19490576
50	0x3e26b368	0.16279376
51	0xbe155fd8	-0.14587343
52	0x3d6c69c8	0.05771807
53	0x3de693ec	0.112586826
54	0xbd92d0d8	-0.0716874
55	0xbe73c692	-0.23806217
56	0x3df0c450	0.11756194
57	0xbcf9e350	-0.030503899
58	0xbdcaedd0	-0.099086404
59	0xbe2cf31e	-0.16889617
60	0xbe68da56	-0.22739539
61	0x3e140122	0.14453557
62	0xbe377f86	-0.1791974
63	0xbd9ab2fc	-0.0755367
64	0x3df17114	0.11789146
65	0x3e115a42	0.14194587
66	0xbe788fde	-0.24273631
67	0xbe4ef67b	-0.20211212
68	0x3e3f5923	0.18686347
69	0xbd7f8b9a	-0.062388994
70	0x3e032093	0.12805395
71	0xbdcbc4e7	-0.099496655
72	0x3e50f287	0.20405017
73	0xbe1b7f06	-0.15185174
74	0x3e3ba6fe	0.18325421
75	0x3d94f247	0.07272773
76	0xbe61a9a3	-0.22037368
77	0xbe0f6169	-0.14002003
78	0x3d803b84	0.06261352
79	0x3e506f7a	0.20355025
80	0xbe33fbea	-0.17576566
81	0xbd8bd932	-0.06828536
82	0x3e641abe	0.22275826
83	0xbc60d049	-0.013721534
84	0x3e40c775	0.18826087
85	0x3e055e27	0.13024198
86	0xbd1a4976	-0.037667714
87	0x3cf0f486	0.029413473
88	0x3cc9b33a	0.024621595
89	0x3e5e3b6c	0.21702355
90	0xbe3308e4	-0.1748386
91	0xbdd58a9f	-0.104268305
92	0x3da9b685	0.08286766
93	0xbe366e8b	-0.17815606
94	0xbe0be617	-0.13661991
95	0xbe3524b6	-0.17689785
96	0xbcbc9832	-0.023021791
97	0x3e45c1f9	0.19312276
98	0x3db36211	0.08758939
99	0x3e06a076	0.13147148
100	0xbe173b55	-0.14768727
101	0x3d9a3dd1	0.07531322
102	0x3df7ace8	0.12093526
103	0xbe64fd0d	-0.22362156
104	0x3e4daf97	0.20086513
105	0x3e005364	0.12531811
106	0x3e269f20	0.16271639
107	0x3d8d0651	0.068859704
108	0x3e6dfe45	0.23241527
109	0x3e03f43e	0.1288614
110	0xbd7bd4da	-0.061482288
111	0x3de6414f	0.112429254
112	0xbe8dfc63	-0.27731618
113	0xbe6f8d61	-0.23393776
114	0xbd8d17ee	-0.0688933
115	0xbd998e67	-0.07497864
116	0x3e9c391f	0.3051233
117	0x3e3ebd04	0.18626791
118	0xbdc6f4e4	-0.09714678
119	0x3d83856c	0.064219326
120	0x3e69c080	0.22827339
121	0xbe41bf9b	-0.18920748
122	0x3e2c9a54	0.16855747
123	0x3d9b3836	0.07579081
124	0x3d1ced35	0.038312156
125	0x3e70f4d4	0.23530895
126	0xbe75611a	-0.23962823
127	0x3e89500c	0.26818883
128	0x3e414504	0.18873984
129	0xbe0d82d2	-0.13819435
130	0xbda11e24	-0.07867077
131	0x3dbc6fff	0.09201049
132	0x3d0a30bc	0.033737883
133	0xbe38d8ab	-0.18051402
134	0x3d27c211	0.04095656
135	0xbde675ef	-0.11252963
136	0xbe845c86	-0.2585184
137	0x3e839aa1	0.2570391
138	0x3b91f663	0.0044544204
139	0xbd5280c4	-0.05139233
140	0xbde0be3a	-0.10973783
141	0xbe512d2e	-0.20427391
142	0xbe3b48ba	-0.18289462
143	0xbe08461b	-0.13307993
144	0xbd23320a	-0.039842643
145	0xbdbec394	-0.09314647
146	0xbd7bf9b6	-0.06151744
147	0x3e37035d	0.17872377
148	0x3deec779	0.1165914
149	0xbe081e45	-0.13292797
150	0x3e0b4015	0.13598664
151	0x3d9b8cbe	0.07595204
152	0xbde98977	-0.114031725
153	0x3e05cf4d	0.1306736
154	0x3e7a0505	0.24415977
155	0x3e34c1c2	0.17652038
156	0x3e647bd5	0.22312863
157	0xbde0857e	-0.109629616
158	0xbbae9a83	-0.005328478
159	0x3e60570c	0.21908206
160	0x3df701f4	0.120609194
161	0xbdf5c680	-0.120007515
162	0xbc26b0a0	-0.010173947
163	0x3bb93580	0.0056521297
164	0x3e2ed6ee	0.17074177
165	0x3e15c0a0	0.14624262
166	0xbe799cda	-0.2437624
167	0xbd3c95f8	-0.04604146
168	0x3e4f0c18	0.20219457
169	0x3dd9d40c	0.10636148
170	0xbcecb4b0	-0.028894752
171	0x3acf1a00	0.0015800595
172	0xbe43c420	-0.19117785
173	0x3da96a28	0.08272201
174	0x3c86cb00	0.01645422
175	0x3d11c728	0.03559032
176	0xbdbc9d34	-0.092096716
177	0xbe3baa6e	-0.18326733
178	0xbcbd0320	-0.02307278
179	0x3e123dec	0.14281434
180	0xbe7dac40	-0.2477274
181	0x3ba13fc0	0.0049209297
182	0xbe3eea60	-0.18644094
183	0x3cdc8f00	0.026923656
184	0xbe3233f2	-0.17402628
185	0x3dcc7ab0	0.09984338
186	0x3c84db10	0.016217738
187	0x3d2ac550	0.041692078
188	0x3e517936	0.20456395
189	0x3b165080	0.0022936165
190	0xbe379d46	-0.17931089
191	0xbcb646d0	-0.022250563
192	0x3c9bb287	0.019006027
193	0x3d021c24	0.03176512
194	0xbe64f1d7	-0.2235788
195	0x3d7d7f0c	0.06188874
196	0x3ca968ba	0.02067982
197	0x3e7cb841	0.24679662
198	0xbe49a126	-0.1969038
199	0xbe36a30d	-0.17835636
200	0x3ba58a41	0.0050518815
201	0x3d53df06	0.051726364
202	0xbd0e1b40	-0.034693956
203	0xbdd60ad5	-0.10451285
204	0x3cbdad0a	0.0231538
205	0xbcbe955e	-0.023264583
206	0xbda83b84	-0.08214477
207	0x3de9f7e4	0.114242345
208	0xbe016ffa	-0.12640372
209	0xbe735062	-0.23761132
210	0xbe6010fc	-0.21881479
211	0x3dc09445	0.0940328
212	0xbe354f06	-0.17705926
213	0xbe470107	-0.19433986
214	0xbda138ac	-0.078721374
215	0x3e286407	0.16444407
216	0x3e1eb838	0.15499961
217	0x3e570f46	0.2100192
218	0xbe343ba5	-0.17600878
219	0xbe34a5d6	-0.17641386
220	0x3e0214e8	0.12703288
221	0x3e670225	0.22559412
222	0xbbf129e0	-0.007359728
223	0xbe78de56	-0.24303564
224	0x3e7f0a26	0.24906215
225	0x3e3ce192	0.18445423
226	0x3e3fa0a2	0.1871362
227	0x3dc4eeac	0.096158355
228	0x3dc74440	0.097298145
229	0xbc8840b0	-0.016632408
230	0x3e121fb2	0.14269903
231	0x3db47c48	0.08812767
232	0xbe136994	-0.14395744
233	0xbdc627e8	-0.0967558
234	0xbd479a28	-0.048731
235	0xbc87ab30	-0.01656112
236	0x3e37ee00	0.17961884
237	0x3e337640	0.17525578
238	0xbd2b1808	-0.041770965
239	0xbdaa7d08	-0.08324629
240	0xbcca6950	-0.02470842
241	0x3e7d8270	0.24756789
242	0x3e7539f6	0.23947892
243	0x3cd42750	0.025897652
244	0xbc00a040	-0.007850707
245	0x3e177b6a	0.14793172
246	0xbe3aee1e	-0.18254897
247	0xbddaa76c	-0.106764644
248	0x3e52efac	0.2059924
249	0x3e7f13f6	0.24909958
250	0x3c4f0d00	0.012637377
251	0xbe5045b2	-0.20339087
252	0x3e2ffe08	0.17186749
253	0x3ded2708	0.1157971
254	0x3cac1f70	0.021011084
255	0x3e754312	0.23951367

linear1.bias f4 [200]
0	0x3e042def	0.12908147
1	0x3e3542fd	0.17701335
2	0xbe03b5d3	-0.12862329
3	0xbe79dd00	-0.24400711
4	0xbdf73524	-0.12070683
5	0x3e158469	0.14601292
6	0x3de50f32	0.11184539
7	0x3e82f3e8	0.2557671
8	0x3d9682c8	0.07349163
9	0xbd9cfefd	-0.07665823
10	0xbe00042e	-0.12501594
11	0xbe228f24	-0.15874916
12	0xbe1080a9	-0.1411158
13	0x3c9c8182	0.019104723
14	0xbe4806e0	-0.19533873
15	0xbe3f5b38	-0.18687141
16	0x3e20bb2d	0.15696402
17	0xbe158082	-0.14599803
18	0xbda475b9	-0.08030266
19	0xbe4c6410	-0.19960046
20	0x3d0e3808	0.034721404
21	0x3e185d2f	0.14879297
22	0x3d3a30c5	0.045456666
23	0xbdd8b0c5	-0.10580591
24	0x3dfe7615	0.12424866
25	0x3dfeccc8	0.12441403
26	0xbcd80854	-0.026371159
27	0xbe45d58e	-0.19319746
28	0xbdfc273c	-0.12312171
29	0xbe1bbe4c	-0.15209311
30	0xbdfe0858	-0.12403935
31	0x3d214952	0.039376564
32	0x3e7752a8	0.24152625
33	0x3ddd2000	0.10797119
34	0xbc90552c	-0.017618738
35	0x3ddb99ae	0.107226714
36	0x3d37c457	0.04486498
37	0x3e3c96f5	0.1841696
38	0x3dbafbbf	0.09130048
39	0x3dac34f2	0.08408536
40	0x3e0d26c3	0.13784318
41	0x3e1007e4	0.1406551
42	0x3e0cb836	0.13742146
43	0xbe2ecf9c	-0.17071384
44	0xbe321f39	-0.17394723
45	0xbd97ade9	-0.074062176
46	0x3e1871a4	0.148871
47	0xbe1d50a0	-0.15362787
48	0xbe7b3091	-0.24530245
49	0xbe25b06e	-0.16180584
50	0x3e06860d	0.13137074
51	0x3e45c98e	0.19315168
52	0xbcc1f14c	-0.02367463
53	0xbdc6eca2	-0.09713103
54	0x3dfd9929	0.123827286
55	0xbdf8f56a	-0.12156184
56	0x3dc944f9	0.098276086
57	0xbe5d56fa	-0.2161521
58	0xbe6dca36	-0.23221669
59	0xbe3aac7e	-0.18229863
60	0x3dea4da6	0.114405915
61	0x3d93e471	0.07221306
62	0x3e2c09c9	0.16800608
63	0x3d8d2b4b	0.06893023
64	0x3e758c6e	0.23979351
65	0x3dc1f092	0.09469713
66	0x3e89be9e	0.26903242
67	0x3e51da8d	0.20493527
68	0x3e516c01	0.20451356
69	0x3e7b3d5c	0.24535125
70	0x3e1e860b	0.15480821
71	0xbca78c1c	-0.020452552
72	0xbe23e0bc	-0.16003698
73	0xbe30c622	-0.17263082
74	0xbe685f7e	-0.22692677
75	0xbd476fda	-0.048690654
76	0x3dcca271	0.09991921
77	0x3cd97d2e	0.026548948
78	0x3e267acf	0.16257785
79	0xbd63b7e5	-0.055595297
80	0x3dd7d094	0.1053783
81	0xbce170fc	-0.027519695
82	0xbdb57961	-0.08861042
83	0x3db9ac17	0.09066027
84	0x3d1ffd7d	0.039060105
85	0xbd88a4aa	-0.06672032
86	0x3e6207b0	0.22073245
87	0xbe5526fe	-0.20815656
88	0x3e873f10	0.264153
89	0x3db7d0dc	0.08975384
90	0x3e6a119a	0.22858277
91	0xbe63dfc7	-0.22253333
92	0xbe520828	-0.20510924
93	0xbe412345	-0.1886111
94	0xbe0139e0	-0.12619734
95	0xbd2e28cb	-0.042519372
96	0xbdf0aae9	-0.117513485
97	0x3e781fd1	0.24230887
98	0xbcfe95eb	-0.031077346
99	0x3e6a0bc1	0.22856046
100	0xbdcdbd3f	-0.100458615
101	0xbe6e602c	-0.23278874
102	0xbe3d1346	-0.18464383
103	0xbe36471d	-0.17800565
104	0xbe008b3b	-0.12553112
105	0xbe7a3d46	-0.24437436
106	0xbded20e2	-0.115785375
107	0x3e57bdeb	0.21068542
108	0x3c7e1e46	0.015510147
109	0x3e23e77c	0.16006273
110	0xbe70ca56	-0.23514685
111	0x3e2e3536	0.17012486
112	0xbe3b6392	-0.18299702
113	0x3c9d0cf6	0.01917122
114	0x3dbaeea5	0.09127549
115	0xbe2d5d9f	-0.16930245
116	0xbdb0c8c1	-0.08632041
117	0xbdfabb3c	-0.122427434
118	0x3e3a1089	0.1817037
119	0xbe00fb09	-0.12595762
120	0x3d528014	0.051391676
121	0x3dbb4df6	0.09145729
122	0x3e45a727	0.19302045
123	0xbdc519a5	-0.09624032
124	0x3d05c3ed	0.032657553
125	0xbe3a0b6a	-0.18168417
126	0x3ce1d8ee	0.02756926
127	0xbe39d984	-0.18149382
128	0xbe51bc34	-0.2048195
129	0xbe76ca3c	-0.24100584
130	0xbe0eca8a	-0.1394445
131	0x3e0dae61	0.13836052
132	0xbe36abc0	-0.17838955
133	0x3d0379d3	0.032098603
134	0x3dfb6652	0.122753754
135	0xbe43dc87	-0.19127093
136	0xbe094711	-0.13406016
137	0x3d2b2642	0.041784532
138	0x3d1a0ac9	0.03760794
139	0xbdfe79e2	-0.12425591
140	0xbc8ec94a	-0.017429966
141	0xbe46b046	-0.1940318
142	0xbda86d37	-0.08223956
143	0x3d94f975	0.07274143
144	0x3e3295e9	0.17439999
145	0x3e46c233	0.19410019
146	0xbe4253a6	-0.18977222
147	0x3e5cbc4e	0.21556208
148	0x3e58777b	0.21139328
149	0xbdf1faf7	-0.11815446
150	0x3e59caa4	0.21268708
151	0x3e38f702	0.18062976
152	0x3d89e29e	0.06732677
153	0xbd9daee1	-0.07699371
154	0x3e27cb4c	0.16386145
155	0xbe0d94f3	-0.13826351
156	0x3df7607d	0.120789506
157	0xbe084dea	-0.13310972
158	0xbe2e3e86	-0.17016038
159	0xbe7144b8	-0.2356137
160	0x3dd4fe96	0.10400121
161	0xbe40d284	-0.18830305
162	0xbdef87ce	-0.116958246
163	0x3e7f3c04	0.24925238
164	0x3e09157f	0.13387106
165	0x3e842212	0.25807244
166	0xbe76adf3	-0.24089794
167	0xbe02a370	-0.12757659
168	0x3e3402c4	0.1757918
169	0x3de47c8b	0.11156567
170	0xbd3dad6d	-0.04630797
171	0x3e029824	0.1275335
172	0xbe45156e	-0.19246456
173	0x3de8e05b	0.113709174
174	0xbe3ca90d	-0.18423863
175	0xbe6e12f8	-0.23249424
176	0x3d6caddb	0.05778299
177	0xbe15e5c1	-0.14638425
178	0xbe639aec	-0.22227067
179	0x3d8f62e9	0.070012875
180	0x3dea455e	0.11439012
181	0x3d7f8fbf	0.062392946
182	0xbe068d04	-0.1313973
183	0xbe7acdfa	-0.24492636
184	0x3e213107	0.15741359
185	0x3d660c82	0.056164272
186	0xbde28bde	-0.11061834
187	0xbdc85feb	-0.0978392
188	0x3e275be6	0.1634365
189	0xbdfcac1c	-0.12337515
190	0xbde384d7	-0.111093216
191	0x3e5ae00e	0.21374533
192	0x3e233706	0.15938959
193	0x3e38a659	0.18032207
194	0x3e69aa93	0.22818975
195	0xbca5879c	-0.020206265
196	0x3e27e6e8	0.16396677
197	0xbddc3c64	-0.10753706
198	0xbe021cb2	-0.12706259
199	0xbe3eec00	-0.18644714

linear2.weight f4 [5, 200]
0	0xbe112983	-0.14175992
1	0xbd0fdbba	-0.035121657
2	0xbce60cba	-0.02808224
3	0x3cac1b27	0.021009041
4	0xbd5b4440	-0.053531885
5	0xbd819094	-0.06326404
6	0x3cc55b99	0.024091529
7	0xbdb08f02	-0.086210266
8	0xbd907afa	-0.07054706
9	0x3d20c3a7	0.03924909
10	0x3c29c62e	0.010362191
11	0xbd4587b6	-0.048225127
12	0x3cadf2d5	0.021233955
13	0x3cb7829d	0.022401148
14	0x3d157e91	0.036497656
15	0x3c818099	0.01580839
16	0x3dbc1fe2	0.09185769
17	0x3cea296f	0.02858421
18	0xbcf45080	-0.029823542
19	0xbceb4695	-0.02872018
20	0xbd43d21a	-0.04780779
21	0xbd23f90d	-0.040032435
22	0xbd3e4d5c	-0.046460494
23	0x3d80b87c	0.062851876
24	0xbdd3f0fe	-0.103487
25	0xbc810419	-0.015749024
26	0xbce25c5b	-0.02763193
27	0x3d4d6121	0.050141457
28	0x3cb75f64	0.022384353
29	0xbd69a453	-0.057041477
30	0xbc60af5b	-0.013713683
31	0xbd944aae	-0.072408065
32	0x3dbb44f1	0.09144009
33	0xbd2163fd	-0.039401997
34	0x3d710435	0.058841903
35	0x3d47cf43	0.048781645
36	0xbd518253	-0.051149677
37	0xbdcf2eb4	-0.1011633
38	0x3d9e6e7e	0.077359185
39	0xbb03358e	-0.0020020935
40	0xbd313f57	-0.043273296
41	0xbd8edb29	-0.06975395
42	0xbc55d3fe	-0.013051031
43	0xbcfc2792	-0.030780587
44	0xbc94c9ac	-0.01816257
45	0x3d47c6cb	0.048773568
46	0xbe78bd61	-0.24290992
47	0x3c53d3a3	0.012928876
48	0x3d250a8a	0.040293254
49	0xbd2b7b0f	-0.041865405
50	0xbe3965c7	-0.18105231
51	0xbcc279a9	-0.023739653
52	0xbdade645	-0.08491186
53	0xbd16f8a1	-0.036858205
54	0xbc4623eb	-0.012093524
55	0xbd2e28c8	-0.04251936
56	0xbc30aa3a	-0.010782773
57	0x3cb96315	0.022630254
58	0x3bc0c9b9	0.005883422
59	0x3c5e9a69	0.013586619
60	0x3d26d353	0.04072888
61	0x3997f746	0.00028985197
62	0x3ba85faa	0.005138357
63	0x3cbbf324	0.022943087
64	0xbc5331ff	-0.012890338
65	0xbde3f2c1	-0.11130286
66	0xbb81cf77	-0.0039614993
67	0x3bb86340	0.005627066
68	0x3ce7a5c6	0.02827729
69	0xbdf0a2cc	-0.11749801
70	0x3cd1757b	0.025568714
71	0x3cd57fff	0.02606201
72	0xbca2c4ba	-0.019869197
73	0xbc5ad770	-0.013357028
74	0x3b027b29	0.0019909835
75	0xbd153335	-0.036425788
76	0xbda14bce	-0.07875787
77	0x3e14e4db	0.14540426
78	0xbca29107	-0.019844545
79	0xbcceb77f	-0.025233982
80	0xbdd85178	-0.10562414
81	0xbd07c639	-0.033148024
82	0xbcf91346	-0.030404698
83	0x3c9c6504	0.019091137
84	0xbc886ff6	-0.01665495
85	0xbc4e1b47	-0.012579746
86	0xbdb9a95c	-0.09065506
87	0x3d701eae	0.05862301
88	0xbe16060b	-0.14650743
89	0xbd289c53	-0.041164707
90	0xbd64863c	-0.05579208
91	0x3c8baa51	0.017048987
92	0xbd680e6c	-0.05665438
93	0xbc2ef1a7	-0.010677732
94	0x3b2c62f6	0.0026304103
95	0x3c90849f	0.017641364
96	0xbbbf20fd	-0.00583279
97	0xbdf37ed8	-0.11889428
98	0x3d3c92d5	0.046038467
99	0x3d789f16	0.06069859
100	0xbd076ab0	-0.03306073
101	0x3d830d2e	0.06398998
102	0x3c7c9343	0.015415969
103	0xbd305f75	-0.043059785
104	0x3cb1bf91	0.021697791
105	0xbd6c88bf	-0.0577476
106	0x3d19d471	0.037556116
107	0xbd267ad1	-0.04064447
108	0x3cb7604c	0.022384785
109	0x3d773eaf	0.060362514
110	0x3d396400	0.045261383
111	0xbdc9710a	-0.098360136
112	0xbcf53d22	-0.029936377
113	0x3c3acedb	0.011401857
114	0xbda0eab0	-0.07857263
115	0xbd8b1349	-0.06790788
116	0xbcb39eb6	-0.021926265
117	0x3d007f3d	0.031371344
118	0xbe44c40b	-0.1921541
119	0x3d1b3069	0.037887964
120	0xbda2ff12	-0.07958807
121	0xbd343e46	-0.0440047
122	0xbcd6919e	-0.026192483
123	0xbd5d181b	-0.053978067
124	0xbcc5e5f4	-0.024157502
125	0xbd618bfc	-0.05506514
126	0xbd87cc25	-0.06630734
127	0xbc88d8cb	-0.016704937
128	0xbd80ba8e	-0.062855825
129	0xbb103752	-0.002200563
130	0x3cd3b888	0.025844827
131	0xbdd4370e	-0.10362063
132	0x3c1d6c6c	0.009608369
133	0xbd0391d9	-0.032121513
134	0x3d55deb0	0.052214324
135	0xbc6e3c90	-0.014540806
136	0x3d892b9f	0.06697773
137	0x3d013194	0.031541422
138	0x3c43bc70	0.0119467825
139	0xbb46e8e1	-0.003035121
140	0xbd72933e	-0.059222452
141	0x3c69d3a6	0.014271652
142	0xbd138f0d	-0.036025096
143	0xbd91eaac	-0.07124838
144	0xbccfffe9	-0.025390582
145	0xbbe197e3	-0.0068845614
146	0xbc8c3d4c	-0.017119072
147	0xbdeddcec	-0.11614403
148	0xbdd6cdb1	-0.10488451
149	0x3d89b355	0.06723658
150	0xbcd9cad5	-0.026585976
151	0x3d25daba	0.040491797
152	0xbe137c3c	-0.1440286
153	0x3d297dec	0.041379854
154	0xbdb9bb13	-0.09068885
155	0x3ce70623	0.028201168
156	0xbcd8108e	-0.026375081
157	0x3d0b26e0	0.03397262
158	0x3cdb16b9	0.026744233
159	0x3d3f2ba6	0.046672486
160	0xbcd961d2	-0.026535902
161	0xbc0e2342	-0.008675398
162	0xbbe9ab92	-0.0071310485
163	0xbc933531	-0.0179697
164	0x3d663940	0.05620694
165	0xbe295db0	-0.16539645
166	0xbcdd3305	-0.027001867
167	0xbccd84be	-0.02508771
168	0xbd3ff80a	-0.046867408
169	0x39f46018	0.00046610902
170	0xbcce2ba3	-0.025167292
171	0xbc435876	-0.011922946
172	0x3d262eb4	0.040571883
173	0x3cf51886	0.02991892
174	0x3bd83f6b	0.006599357
175	0xbd3ab539	-0.045582984
176	0x3d96d789	0.07365329
177	0x3cba33ec	0.022729836
178	0xbd2f1548	-0.042744905
179	0xbbb1e976	-0.005429442
180	0x3d9fc67f	0.07801532
181	0x3e1ac572	0.15114382
182	0xbd39f96e	-0.04540389
183	0x3caf57cb	0.021404168
184	0xbc18bde0	-0.0093226135
185	0xbd8e5658	-0.069500625
186	0x3c33a9d4	0.010965783
187	0xbd5f7564	-0.05455531
188	0x3dcb8daf	0.099391334
189	0xbd3999c3	-0.045312654
190	0x3cf00062	0.029297058
191	0xbdbcb547	-0.092142634
192	0xbd209375	-0.039203126
193	0xbd551f44	-0.05203177
194	0xbe56dc25	-0.20982416
195	0xbd6f5b4d	-0.05843668
196	0x3b1090f5	0.0022059057
197	0xbd0d4eb1	-0.034498874
198	0xbc8d0405	-0.01721383
199	0xbd305542	-0.04305006
200	0xbe2c4e6c	-0.1682679
201	0x3e6763de	0.2259669
202	0xbcb08e85	-0.021552334
203	0x3cbd8e1b	0.02313905
204	0xbd576fa3	-0.0525967
205	0x3d56559a	0.05232773
206	0xbd88c69a	-0.06678505
207	0x3ef04cd8	0.46933627
208	0xbe3d6f49	-0.18499483
209	0x3c2faa8f	0.010721817
210	0x3c1591e8	0.009129025
211	0xbca7f0e4	-0.020500608
212	0x3beb7774	0.007185871
213	0xba8a034b	-0.0010529546
214	0xbd604772	-0.054755636
215	0xbd0ba025	-0.034088273
216	0x3e7a7406	0.24458322
217	0xbcee8e80	-0.029120684
218	0xbd091bde	-0.03347384
219	0x3ce507d9	0.027957844
220	0xbe5111c8	-0.2041694
221	0x3e323fb8	0.1740712
222	0xbc57c60a	-0.013169775
223	0xbc736ab9	-0.014856988
224	0xbe115dfa	-0.14196005
225	0x3ea15281	0.31508258
226	0xbd464f59	-0.048415516
227	0xbd0c27e2	-0.034217723
228	0xbd52be2e	-0.0514509
229	0x3d55245d	0.05203663
230	0xbd7cc487	-0.06171086
231	0xbe52890f	-0.20560096
232	0x3e3c2a86	0.18375596
233	0x3d90b973	0.07066622
234	0x3d362baf	0.044475254
235	0x3e352da9	0.17693199
236	0xbdef647a	-0.11689086
237	0x3cf5bf97	0.029998584
238	0x3dcea85c	0.10090706
239	0xbe20d1ba	-0.15705004
240	0xbddba1f6	-0.10724251
241	0x3d67f2d1	0.056628052
242	0xbd64b3fe	-0.055835716
243	0x3d909669	0.070599385
244	0xbd3d1e21	-0.04617131
245	0x3ac81bcf	0.0015267077
246	0xbe19cb6f	-0.1501901
247	0x3d63b88a	0.055595912
248	0xbd085552	-0.033284493
249	0x3d9028b8	0.070390165
250	0xbe3abd51	-0.18236281
251	0x3e5971b5	0.21234782
252	0xbda4abc2	-0.08040573
253	0xbd7f82ef	-0.062380727
254	0xbe611086	-0.2197896
255	0xbc49c0c7	-0.012314028

linear2.bias f4 [5]
0	0xbe731c73	-0.23741321
1	0x3ea37d5e	0.31931585
2	0x3d2c7ccb	0.0421112
3	0x3e0daba1	0.13835002
4	0xbe31ab56	-0.17350516
