Assignment/A2/a2_files/model.pt (torch, 270107 bytes, 5 tensors)

embedding.weight f4 [3165, 16]
0.0 0.0 0.0 0.0 0.0 0.0 0.0 0.0
0.0 0.0 0.0 0.0 0.0 0.0 0.0 0.0
-0.5430766 -0.6730008 0.29710343 0.4283946 0.26262882 -0.6646444 -0.124579065 0.7210909
0.30310905 -0.28465772 -0.0348345 0.14069891 0.6266532 0.8075919 0.3393527 -0.45388612
-0.2625519 -0.011649491 -0.22016492 0.11276363 0.22311868 0.07961358 0.29240537 0.17945716
-0.043633692 0.34724557 -0.14239907 0.04574348 0.2434061 1.045263 -0.6834814 -0.7104284
-0.31349447 0.38197538 0.50517064 0.11228784 -0.0736309 -0.18865064 0.26493743 -0.2131052
-0.20412102 0.3197046 0.6542257 1.4940642 -0.680448 -0.51186085 0.7741115 -0.21074551
-0.20442216 0.45688567 0.47446957 0.85741097 -0.6387603 0.9220327 0.36046073 -0.22531533
-0.75941694 -0.14597555 -0.1484228 -0.17208324 -0.46063936 0.75816274 -0.30887705 0.47977293
-0.015317776 0.27962875 -0.38203904 -0.006987134 0.3169048 -0.20992725 0.54301524 0.19661461
-0.08073411 1.0830145 -0.7344458 0.012174821 -0.4933588 -0.435665 0.008944417 0.32563514
0.6311714 -0.47048342 0.5561289 0.3100231 -1.190508 -0.6800018 -0.57679296 0.3420937
0.07174539 -0.15715484 0.112587444 -0.1912673 0.16134386 -0.21194865 0.26197037 -0.39977795
-0.06533335 -1.0886085 -0.04535267 0.020838747 0.42169425 0.14233956 -0.3174157 -0.07085101
-0.27743044 -0.1764607 0.90117466 -0.1309349 0.04851596 0.55620295 0.38034382 0.6139815
-0.33774486 -0.11966637 -0.33152536 0.57624143 0.3053863 -0.0007646266 1.4124949 -0.8707414
-0.07125037 0.124682486 -0.19796897 -0.5044233 -0.022938767 -0.13940382 -0.43265206 0.2213757
-0.076878056 0.030678947 0.14543046 0.5034875 0.104150735 0.2123594 -0.13668913 0.01573989
0.11105552 -0.3381861 -0.7829094 0.08828706 -0.32164153 0.14706716 0.06681539 0.13145675
0.44668242 -0.445393 0.14580931 0.047182217 0.4816026 -0.27996093 0.51501566 0.13345025
0.13356128 0.10735417 -0.05975116 0.17235424 -0.12898467 -0.37686685 -0.0022464325 -0.56960034
0.15700212 0.037971955 -0.6605239 -0.13609514 0.4038536 0.24322821 0.5422085 0.30711505
-0.5025238 -0.35353476 0.79487365 0.3469288 0.2977338 -0.34421688 -0.5587963 -0.9045007
-0.23983237 0.28342453 0.2094604 0.22909968 0.04523813 0.3632307 -0.095943555 0.4313616
-0.041964166 -0.49152812 0.20592268 0.24720074 0.28946277 -0.4865874 0.24694401 -0.2539787
0.5372272 0.10301966 0.44934174 0.39855126 -0.6237621 0.41696757 -0.2260843 -0.543923
0.42071134 0.5829762 -0.22520266 0.2539682 0.11247504 -0.0015137265 -0.45595878 -0.10253625
-0.080034085 0.655907 0.11273509 0.18761867 -0.034177843 0.34385714 -0.077704586 -0.62477547
-0.050953023 -0.2152531 -0.16407555 0.48830208 -0.3874352 0.43213898 0.43625528 -0.80712694
-0.65786797 -0.80409646 0.11457786 -0.42136598 0.69996756 -0.0403835 0.25198638 -0.13177398
-0.037866205 0.41753346 0.35733703 -0.25726467 -0.37027755 0.14826584 0.7593735 0.21612662
00000000: 0000 0000 0000 0000 0000 0000 0000 0000
00000010: 0000 0000 0000 0000 0000 0000 0000 0000
00000020: 0000 0000 0000 0000 0000 0000 0000 0000
00000030: 0000 0000 0000 0000 0000 0000 0000 0000
00000040: 1107 0bbf c849 2cbf f11d 983e 8956 db3e
00000050: 4977 863e 2326 2abf 4f23 ffbd 6a99 383f
00000060: 1c31 9b3e a8be 91be 9fae 0ebd 6013 103e
00000070: 586c 203f 58be 4e3f a3bf ad3e c363 e8be
00000080: 346d 86be 82dd 3ebc ea72 61be 9ef0 e63d
00000090: 3979 643e 720c a33d 28b6 953e 9ec3 373e
000000a0: 3eb9 32bd 2cca b13e 10d1 11be 845d 3b3d
000000b0: 733f 793e 2ecb 853f a3f8 2ebf a3de 35bf
000000c0: 5982 a0be 4792 c33e dd52 013f 2bf7 e53d
000000d0: cccb 96bd a22d 41be e1a5 873e 4038 5abe
000000e0: 1a05 51be 52b0 a33e 567b 273f 7f3d bf3f
000000f0: d731 2ebf 5009 03bf 2c2c 463f accd 57be
00000100: 0b54 51be ebec e93e aded f23e 497f 5b3f
00000110: cc85 23bf 560a 6c3f 4f8e b83e 10b9 66be
00000120: 2669 42bf 9d7a 15be 25fc 17be 9736 30be
00000130: ecd8 ebbe f416 423f 2225 9ebe cca4 f53e
00000140: 69f7 7abc 802b 8f3e 9f9a c3be 54f4 e4bb
00000150: 5941 a23e 2bf7 56be 0c03 0b3f 5755 493e
00000160: ed57 a5bd 38a0 8a3f a404 3cbf e778 473c
00000170: 8699 fcbe 7c0f dfbe 9b8b 123c a6b9 a63e
00000180: 7394 213f 34e3 f0be 775e 0e3f 59bb 9e3e
00000190: 9162 98bf 9914 2ebf b4a8 13bf e826 af3e
000001a0: 3fef 923d 33ed 20be 3f94 e63d 93db 43be
000001b0: 5337 253e 1109 59be fb20 863e b2af ccbe
000001c0: 7ecd 85bd 8657 8bbf b9c3 39bd 05b6 aa3c
000001d0: 4fe8 d73e 76c1 113e 5084 a2be 561a 91bd
000001e0: 5d0b 8ebe 1db2 34be 62b3 663f cc13 06be
000001f0: acb8 463d 5163 0e3f 6dbc c23e e42d 1d3f
00000200: e5ec acbe a413 f5bd b1bd a9be 8f84 133f
00000210: 985b 9c3e 3971 48ba a2cc b43f e9e8 5ebf
00000220: b7eb 91bd 8859 ff3d 61b8 4abe e321 01bf
00000230: 15ea bbbc e0bf 0ebe 9284 ddbe 50b0 623e
00000240: 3e72 9dbd 6a52 fb3c b9eb 143e 8fe4 003f
00000250: fb4c d53d be74 593e 3cf8 0bbe f1f0 803c
00000260: 1471 e33d ba26 adbe c06c 48bf d9cf b43d
00000270: 33ae a4be c698 163e 82d6 883d 999c 063e
00000280: 8fb3 e43e 8d0a e4be 094f 153e 2442 413d
00000290: 9e94 f63e 0a57 8fbe 11d8 033f 2fa7 083e
000002a0: 4ac4 083e 81dc db3d a2bd 74bd a17d 303e
000002b0: 8f14 04be b1f4 c0be e238 13bb 54d1 11bf
000002c0: 2ac5 203e 7b88 1b3d 1818 29bf 865c 0bbe
000002d0: e6c5 ce3e d110 793e 2dce 0a3f 2f3e 9d3e
000002e0: 66a5 00bf 8202 b5be d77c 4b3f a7a0 b13e
000002f0: 9170 983e 323d b0be 460d 0fbf 5c8d 67bf
00000300: 9e96 75be 051d 913e c97c 563e 1b99 6a3e
00000310: 9e4b 393d 60f9 b93e 0e7e c4bd 6ddb dc3e
00000320: 9ee2 2bbd 93a9 fbbe 65dd 523e 3122 7d3e
00000330: 7734 943e fc21 f9be e4de 7c3e 7f09 82be
00000340: b987 093f f9fb d23d 1f10 e63e e90e cc3e
00000350: dfae 1fbf c67c d53e a582 67be 8a3e 0bbf
00000360: 7a67 d73e ee3d 153f 879b 66be 1f08 823e
00000370: 5059 e63d 3c68 c6ba 6e73 e9be 87fe d1bd
00000380: e9e8 a3bd 85e9 273f a8e1 e63d 1c1f 403e
00000390: 11fe 0bbd 0b0e b03e 9523 9fbd 49f1 1fbf
000003a0: 1eb4 50bd 4f6b 5cbe 6c03 28be bb02 fa3e
000003b0: e85d c6be 5241 dd3e da5c df3e df9f 4ebf
000003c0: 096a 28bf 44d9 4dbf cca7 ea3d 48bd d7be
000003d0: 1331 333f 2b69 25bd 5c04 813e c2ef 06be
000003e0: 9819 1bbd f2c6 d53e e1f4 b63e 32b8 83be
000003f0: 0595 bdbe 00d3 173e 4d66 423f 4c50 5d3e

fc1.weight f4 [200, 16]
-0.004667981 0.38886794 -0.17602107 0.09209474 -0.26088133 -0.14683391 -0.085076116 0.04594734
-0.0483708 -0.09684756 0.14168155 0.09798518 -0.020572433 0.01417938 0.17282817 -0.28716436
0.011208249 -0.21055399 -0.08171614 0.026194597 0.28795588 0.24924432 0.19417955 -0.18275882
0.00886845 0.08779251 -0.050643906 0.25034186 0.05727463 0.06920981 -0.24424529 0.06862303
-0.0827395 0.032129105 0.03753054 0.18305834 0.07147458 -0.1335738 0.18409233 -0.03533401
0.06582092 0.11325803 -0.146834 -0.2963534 -0.060544986 0.11321663 -0.13951175 0.25652486
0.21031894 0.32808116 -0.09742603 0.05184695 -0.04501165 0.2824199 -0.2813527 -0.23574138
0.0021546232 -0.19599535 -0.03454498 0.3393089 0.05754659 0.043609254 0.02113578 -0.588624
0.13183315 -0.090629205 -0.042355604 0.048560444 0.27537948 0.27035782 -0.053127404 -0.21211912
-0.08621824 -0.03348922 -0.14592268 0.2648461 0.040497635 0.15101184 -0.18797696 -0.031840388
-0.0031233535 0.028208204 0.056066595 0.06299154 -0.031358626 0.024281574 -0.1457695 0.13000229
-0.050119422 -0.14800735 -0.061717954 -0.1905353 0.041347507 -0.044994727 0.03210494 0.117710315
-0.19330458 -0.17986858 0.008089447 -0.10053665 0.057755236 -0.030937292 -0.20726816 0.25309762
-0.055934124 -0.10153416 -0.023103049 -0.31044585 0.0002669562 -0.08358283 0.16939534 0.2870997
-0.08621804 -0.032338772 0.17328915 -0.05976901 0.11239093 -0.09141412 -0.2625223 -0.0034411412
-0.030377124 -0.08252176 -0.061972167 -0.32268253 -0.022017676 -0.03195835 0.10070987 0.19721891
0.08794957 -0.2589198 -0.072710276 -0.1124663 0.24728455 0.24521947 0.058499664 -0.114526846
0.006933763 -0.11469791 -0.2278343 0.32924762 0.12958252 0.08159073 -0.21892525 0.030552598
0.09617029 0.27946842 -0.16729513 0.0216192 0.06947882 0.069281004 -0.24941789 -0.07631584
-0.033271156 -0.20505373 0.12010617 0.25877783 0.14600003 0.085624896 0.019560816 -0.40413347
-0.09883425 0.20093858 -0.016943036 -0.04790559 -0.15707774 -0.16818666 -0.31404465 0.15059868
-0.047230516 -0.08220367 0.0002801614 -0.2830883 -0.15560211 -0.049300995 0.1470965 0.117699996
-0.09514007 0.028501475 0.15707064 -0.06280911 0.19081558 0.097621925 -0.2684496 -0.033339225
0.081098035 -0.05915791 -0.13488583 -0.14204106 0.1357529 -0.026061216 -0.053849224 0.03157648
0.11580727 -0.111005075 -0.17606245 -0.17854707 -0.034532744 0.15314412 -0.05937991 0.066330746
0.13729699 0.06257979 0.17740537 0.31167614 0.014088774 -0.18174571 0.12803887 0.012264457
0.098065525 -0.07628151 0.084026314 -0.055617068 0.045225766 0.084113665 -0.081598945 0.10091494
0.09120712 0.07015662 -0.08450033 0.11190696 -0.11191926 -0.06675428 -0.04466591 0.063885696
-0.1520683 -0.028749045 0.017631412 0.1122057 0.101618886 -0.22957583 0.12795554 -0.13798866
0.04499314 -0.09937831 -0.15610479 -0.2004048 0.030566033 0.16221519 -0.019083811 0.12875794
-0.04195444 -0.04765478 0.10438071 -0.04414239 0.009056232 0.077279806 -0.09287608 0.099872425
-0.00658539 -0.03264711 0.05100713 -0.007997551 -0.021415574 -0.06779727 0.026798744 0.006682379
00000000: ddf5 98bb b319 c73e de3e 34be 2b9c bc3d
00000010: 3d92 85be a15b 16be 633c aebd 4733 3c3d
00000020: 7620 46bd 0358 c6bd f814 113e 74ac c83d
00000030: 8587 a8bc a150 683c def9 303e 3507 93be
00000040: cea2 373c 779b 57be cb5a a7bd 0d96 d63c
00000050: f46e 933e e739 7f3e 01d7 463e 2125 3bbe
00000060: fa4c 113c 8fcc b33d fc6f 4fbd cf2c 803e
00000070: cd98 6a3d dfbd 8d3d 701b 7abe 3b8a 8c3d
00000080: 5473 a9bd cf99 033d a0b9 193d a573 3b3e
00000090: 4461 923d 92c7 08be b382 3c3e 65ba 10bd
000000a0: 1ecd 863d d3f3 e73d a75b 16be a2bb 97be
000000b0: 05fe 77bd 1fde e73d 2bdc 0ebe 3a57 833e
000000c0: d95d 573e 41fa a73e 4c87 c7bd 785d 543d
000000d0: 235e 38bd 5799 903e 760d 90be 3066 71be
000000e0: 9434 0d3b 01b3 48be 097f 0dbd e5b9 ad3e
000000f0: f9b5 6b3d 9e9f 323d f124 ad3c 10b0 16bf
00000100: 45ff 063e ce9b b9bd 127d 2dbd 51e7 463d
00000110: 8afe 8c3e 576c 8a3e 1f9c 59bd c135 59be
00000120: 3093 b0bd fe2b 09bd c16c 15be e899 873e
00000130: d9e0 253d d9a2 1a3e 087d 40be 116b 02bd
00000140: 2db1 4cbb e414 e73c 16a6 653d b501 813d
00000150: e771 00bd 27ea c63c 9a44 15be 521f 053e
00000160: 064a 4dbd 3d8f 17be f7cb 7cbd b01b 43be
00000170: 015c 293d 644c 38bd 7880 033d 1b12 f13d
00000180: a3f1 45be 782f 38be 9a89 043c 29e6 cdbd
00000190: c190 6c3d 3470 fdbc 1b3e 54be 0396 813e
000001a0: 2e1b 65bd 24f1 cfbd 9b42 bdbc c2f2 9ebe
000001b0: 41f6 8b39 7a2d abbd f975 2d3e bbfe 923e
000001c0: 1593 b0bd a975 04bd b672 313e 59d0 74bd
000001d0: 372d e63d 5337 bbbd 5369 86be c584 61bb
000001e0: 72d9 f8bc 2b01 a9bd 87d6 7dbd a536 a5be
000001f0: 6a5e b4bc c2e6 02bd fa40 ce3d c1f3 493e
00000200: e71e b43d 2391 84be 20e9 94bd bb54 e6bd
00000210: 2938 7d3e d01a 7b3e 589d 6f3d 0d8d eabd
00000220: 9f34 e33b bde6 eabd 654d 69be 2593 a83e
00000230: 48b1 043e 0a19 a73d f12d 60be 7149 fa3c
00000240: eef4 c43d 7c16 8f3e 6a4f 2bbe c01a b13c
00000250: e94a 8e3d 33e3 8d3d 6767 7fbe 7b4b 9cbd
00000260: 5647 08bd 9bf9 51be 39fa f53d 877e 843e
00000270: 0881 153e 1b5c af3d 013e a03c 95ea cebe
00000280: 9c69 cabd d8c2 4d3e 1fcc 8abc a738 44bd
00000290: fdd8 20be 2039 2cbe 76ca a0be 8a36 1a3e
000002a0: c974 41bd 665a a8bd a0e2 9239 f3f0 90be
000002b0: 2956 1fbe d7ef 49bd 77a0 163e b20c f13d
000002c0: ccd8 c2bd ed7b e93c 20d7 203e 10a2 80bd
000002d0: 2965 433e 01ee c73d 3a72 89be b68e 08bd
000002e0: ba16 a63d 914f 72bd 831f 0abe 3673 11be
000002f0: cf02 0b3e 557e d5bc 0191 5cbd 5756 013d
00000300: 5d2c ed3d a156 e3bd b749 34be 0bd5 36be
00000310: 3572 0dbd d0d1 1c3e 5938 73bd 6ad8 873d
00000320: 9597 0c3e d529 803d c1a9 353e 0494 9f3e
00000330: 9ad4 663c 8c1b 3abe 9f1c 033e dcf0 483c
00000340: 94d6 c83d 7b39 9cbd fd15 ac3d b9ce 63bd
00000350: a73e 393d c943 ac3d 591d a7bd 7eac ce3d
00000360: ccca ba3d 46ae 8f3d 820e adbd 7a2f e53d
00000370: ed35 e5bd 78b6 88bd 9af3 36bd 81d6 823d
00000380: cbb7 1bbe 1e83 ebbc c06f 903c 1acc e53d
00000390: 901d d03d ed15 6bbe c706 033e e64c 0dbe
000003a0: ba4a 383d db86 cbbd efd9 1fbe ea36 4dbe
000003b0: 9e65 fa3c bd1b 263e a755 9cbc 1fd9 033e
000003c0: 6bd8 2bbd a931 43bd 8ec5 d53d a7ce 34bd
000003d0: 9760 143c e044 9e3d d035 bebd ea89 cc3d
000003e0: 41ca d7bb fab8 05bd daec 503d 2908 03bc
000003f0: b76f afbc 4cd9 8abd 0a89 db3c dcf7 da3b

fc1.bias f4 [200]
0.006429546 0.19787547 0.19793653 0.24193767 0.17738277 0.085433684 0.16051787 0.078501314
0.12762317 0.19821009 0.23382917 0.19777152 0.24180685 0.063565314 0.11788051 -0.03132511
0.19958365 -0.04753387 -0.09457072 0.06310567 0.10797798 0.01898893 0.17251198 0.16951771
0.10516204 -0.008978335 0.04830363 0.110775694 -0.047148928 0.16621684 -0.073797785 0.19028415
0.25300622 0.17993979 -0.073903374 0.21461733 0.19884321 -0.0012018888 0.27455148 0.14966185
0.0672367 0.17409669 0.08501411 0.059945762 0.27175865 -0.11426655 -0.10841343 -0.002632145
0.23002782 0.0732701 -0.069950365 0.15787697 0.17070812 -0.063916504 0.1855024 0.22740723
0.1383473 -0.0905899 0.038778014 0.017345699 -0.07969253 0.110331096 0.18920727 0.25737548
-0.022211108 0.049129188 0.2750238 0.14660685 0.35380787 -0.0077073798 0.020436617 0.057582717
0.09208323 0.1091571 0.26299053 0.06448071 0.20848298 -0.04256637 0.17985363 0.029718898
0.2995561 0.18428728 0.07672978 0.13294798 0.20944978 -0.06722487 0.15075138 0.1014818
0.27548978 0.08798942 0.3240837 -0.07104717 -0.080375895 0.076098666 0.13310349 -0.029434409
0.013931892 -0.049146473 0.15638639 0.097137235 0.18051632 0.25916427 0.19250663 0.05633706
0.18538971 0.07714282 0.046638172 0.24556431 0.033120133 -0.10031619 0.06509616 0.051992215
-0.11322032 0.02280303 -0.02817212 0.04412635 0.11776376 0.06630661 0.19720359 0.0023877425
0.20595865 0.07142276 -0.04011769 -0.06321193 -0.040888965 -0.0741548 0.15285166 0.053479668
-0.10375971 0.046793684 0.15183264 -0.06689131 -0.10543582 0.3270941 -0.056542046 0.052433714
-0.074267305 -0.09717061 0.15321591 0.15652739 0.22312078 0.046237722 -0.0854538 -0.087949626
0.16284813 0.16643071 -0.093303844 0.1461786 0.20259899 0.34567222 0.15801783 0.20421717
-0.05372943 -0.07875385 0.14019011 0.14125465 0.032614537 0.076386064 0.31913903 0.30585772
0.20589004 -0.08480075 0.013782513 0.14239088 -0.10317576 0.20902532 -0.0027861712 0.20877752
0.089791276 0.2390811 0.0232623 0.07844571 0.19093545 0.05356501 0.22018272 -0.030513423
0.24408127 -0.10102534 0.21114428 0.22182533 0.06278879 0.0610277 0.18145652 -0.033627227
0.11287702 0.2247936 -0.048999537 -0.04246205 -0.080909945 -0.038068984 0.35644147 0.1553576
0.21897398 0.11754465 0.18206666 0.061175972 -0.09018141 0.20464997 0.17936715 0.09389384
00000000: f1ae d23b de9f 4a3e e0af 4a3e 82be 773e
00000010: d4a3 353e dbf7 ae3d cc5e 243e 4cc5 a03d
00000020: a6af 023e 96f7 4a3e ea70 6f3e 9e84 4a3e
00000030: 379c 773e 882e 823d 566b f13d c24e 00bd
00000040: a85f 4c3e e0b2 42bd 4bae c1bd 8c3d 813d
00000050: 8f23 dd3d ac8e 9b3c fba6 303e 0d96 2d3e
00000060: 325f d73d de19 13bc 07da 453d 5ede e23d
00000070: 3c1f 41bd bf34 2a3e 4b23 97bd d9d9 423e
00000080: 088a 813e 2342 383e a75a 97bd a5c4 5b3e
00000090: 8e9d 4b3e b288 9dba 0392 8c3e f540 193e
000000a0: 65b3 893d 6746 323e e11b ae3d b089 753d
000000b0: f323 8b3e 9504 eabd dc07 debd 1180 2cbb
000000c0: 6a8c 6b3e a20e 963d 2342 8fbd 80aa 213e
000000d0: 1cce 2e3e a8e6 82bd 57f4 3d3e 71dd 683e
000000e0: eaaa 0d3e 3387 b9bd b2d5 1e3d 9118 8e3c
000000f0: d635 a3bd 45f5 e13d 8dbf 413e b8c6 833e
00000100: 12f4 b5bc b03b 493d ebcf 8c3e 1b20 163e
00000110: 4e26 b53e 308e fcbb b16a a73c dbdb 6b3d
00000120: 2296 bc3d c28d df3d b2a6 863e 760e 843d
00000130: 907c 553e 135a 2ebd 8d2b 383e 0c75 f33c
00000140: 6b5f 993e ceb5 3c3e 8124 9d3d 8423 083e
00000150: 017a 563e 31ad 89bd 925e 1a3e b1d5 cf3d
00000160: ff0c 8d3e cc33 b43d 4cee a53e 2e81 91bd
00000170: 1e9c a4bd 9ed9 9b3d 484c 083e 6e20 f1bc
00000180: 9742 643c d04d 49bd c123 203e e3ef c63d
00000190: 45d9 383e 2eb1 843e 7520 453e b0c1 663d
000001a0: cdd6 3d3e 0efd 9d3d ab07 3f3d 3675 7b3e
000001b0: faa8 073d 9372 cdbd 2351 853d caf5 543d
000001c0: 0ee0 e7bd 6ccd ba3c 38c9 e6bc d5bd 343d
000001d0: 202e f13d c3cb 873d bdef 493e ac7b 1c3b
000001e0: d3e6 523e 1946 923d 7252 24bd 4275 81bd
000001f0: 307b 27bd 79de 97bd 2585 1c3e 7f0d 5b3d
00000200: f97f d4bd bcaa 3f3d 047a 1b3e 50fe 88bd
00000210: bcee d7bd e178 a73e a298 67bd bcc4 563d
00000220: 7519 98bd 6301 c7bd a2e4 1c3e b748 203e
00000230: c679 643e c463 3d3d 6702 afbd ef1e b4bd
00000240: a9c1 263e d06c 2a3e 1616 bfbd d8af 153e
00000250: 1c76 4f3e f3fb b03e 6dcf 213e 4e1e 513e
00000260: 6413 5cbd b349 a1bd ff8d 0f3e 0fa5 103e
00000270: d296 053d 4c70 9c3d 3166 a33e 6299 9c3e
00000280: d7d4 523e 04ac adbd 0dd0 613c eace 113e
00000290: d04d d3bd bc0a 563e 3298 36bb c6c9 553e
000002a0: 7de4 b73d add1 743e 9490 be3c 25a8 a03d
000002b0: 9584 433e fc66 5b3d 9477 613e 49f7 f9bc
000002c0: 71f0 793e 60e6 cebd 3536 583e 2e26 633e
000002d0: 6997 803d 2ef8 793d bdcf 393e b4bc 09bd
000002e0: 112c e73d 4b30 663e bdb3 48bd b0ec 2dbd
000002f0: 1db4 a5bd 39ee 1bbd 7f7f b63e 1016 1f3e
00000300: b73a 603e 40bb f03d af6f 3a3e a893 7a3d
00000310: 08b1 b8bd c38f 513e 06ac 373e 6a4b c03d

fc2.weight f4 [5, 200]
-0.06880629 0.21450146 0.32703823 -0.17159067 0.060973965 -0.13598287 -0.24968523 -0.15449928
0.025438014 -0.17308436 -0.18563345 -0.14399266 -0.25234917 -0.0566033 0.27328223 0.00741307
-0.20604107 0.008909106 0.02128666 -0.09958082 -0.089043394 0.012997213 -0.036209084 -0.22912288
0.19607757 0.016582021 0.010433203 0.0811356 0.040938027 -0.11182048 0.019460171 0.08703579
0.13283432 -0.028578797 -0.038527805 -0.14709233 -0.13552205 -0.012333859 0.23735589 -0.25103214
-0.21248199 0.09356701 0.49032947 0.16487141 -0.42834508 -0.021414557 0.02126956 -0.012770707
-0.3255129 -0.01692764 -0.0003826992 -0.24111667 -0.26968473 0.019543087 -0.049028214 -0.31717843
-0.23039974 0.017054945 -0.0351579 0.1915658 0.014071239 -0.111646146 0.07013044 0.37278065
0.0020602033 -0.0841566 0.25357053 -0.22305903 0.22668962 -0.058806095 -0.032114357 -0.056143545
0.32076576 -0.071483694 0.027206562 0.21765873 -0.022762705 -0.018519316 0.24095133 0.009643726
0.3655738 -0.22509387 -0.10259315 -0.13376851 0.26581636 -0.015885513 0.21099116 0.16871451
0.5940656 -0.15991217 0.48415306 -0.019200968 -0.016471632 -0.07444505 0.20397645 0.021301137
0.14164336 -0.0055490485 -0.17760478 0.024383683 0.24425013 -0.12674046 0.08948697 -0.12255779
-0.22496817 -0.13800563 -0.057864174 -0.43830273 0.45465505 -0.011189338 0.68347406 -0.035483833
-0.015224393 0.7357266 -0.01039624 0.13022402 0.040883422 0.05622566 0.5399516 -0.018634867
-0.33532897 0.13663448 0.02344052 -0.0107827345 -0.018692749 -0.012475233 0.12907752 0.13286692
0.011046977 -0.010725313 -0.32892913 0.017300362 -0.030621106 -0.46058577 -0.012925759 -0.0054804427
-0.013306753 -0.0053672483 -0.09006078 -0.11556611 -0.35724303 0.24351001 0.0075695785 0.029217558
-0.32598996 -0.33434778 0.0011994651 -0.15287289 0.055198517 0.012292607 -0.26943544 -0.17371434
0.016211601 0.023354588 0.07187282 -0.17131296 -0.05201513 -0.14475209 0.26506865 0.13016102
-0.3037529 0.0063354615 -0.13638876 -0.2072183 0.02880434 0.088027775 -0.041341156 -0.062463038
-0.22026128 -0.033359442 -0.09211617 -0.2830822 -0.38141248 0.35570034 -0.38252947 0.0009598577
0.08409617 -0.020174164 0.17611787 0.33219853 -0.097641625 -0.059452865 0.27386642 0.011209485
-0.2353435 0.34399945 -0.020775368 -0.019881006 0.00518938 0.0074961195 -0.39026403 0.3999111
0.116942085 0.027875783 -0.22261035 -0.19807988 -0.003328504 0.51765555 0.08191818 0.19994354
-0.20520233 -0.20671713 0.27168238 -0.27915078 -0.17507854 0.23165193 0.45318785 0.43336636
-0.14369407 -0.22305259 0.36996078 0.3174423 -0.3103279 -0.011776192 0.23217092 -0.023667796
0.121418506 -0.043088116 -0.009359188 -0.00043501993 -0.08666304 0.10531833 -0.011288715 -0.09624261
-0.18421437 0.029597437 -0.028439498 -0.15807188 -0.010107198 -0.015561433 0.033373028 -0.1899062
-0.39384246 -0.11342182 -0.027054531 -0.22311087 0.3410314 0.021942079 0.06906804 -0.046074905
-0.0644359 -0.15905403 -0.123994194 -0.09269754 0.19059846 -0.001509627 0.009604815 0.074739866
-0.006279657 -0.013998929 -0.018569589 0.24480405 0.22679564 0.020961609 0.105281085 -0.002541348
00000000: 50ea 8cbd 45a6 5b3e 8e71 a73e 77b5 2fbe
00000010: d6bf 793d 183f 0bbe 7cad 7fbe 0f35 1ebe
00000020: 6263 d03c 073d 31be b216 3ebe d072 13be
00000030: e933 81be ddd8 67bd a6eb 8b3e 57e9 f23b
00000040: 6efc 52be 80f7 113c 5d61 ae3c 07f1 cbbd
00000050: 625c b6bd 43f2 543c fa4f 14bd 309f 6abe
00000060: 8fc8 483e 05d7 873c 06f0 2a3c 6c2a a63d
00000070: a2ae 273d 2302 e5bd f06a 9f3c d23f b23d
00000080: b805 083e 151e eabc 55cf 1dbd 5f9f 16be
00000090: 4bc6 0abe f413 4abc 6c0d 733e 4987 80be
000000a0: e194 59be 0fa0 bf3d 770c fb3e 0dd4 283e
000000b0: 0c50 dbbe 956d afbc 803d ae3c 3a3c 51bc
000000c0: a0a9 a6be d6ab 8abc 04a5 c8b9 4ae7 76be
000000d0: 1e14 8abe d318 a03c cfd1 48bd 3665 a2be
000000e0: e9ed 6bbe d0b6 8b3c bb01 10bd d329 443e
000000f0: 0e8b 663c bca6 e4bd 8ca0 8f3d 1bdd be3e
00000100: 7a04 073b 4c5a acbd ffd3 813e 9669 64be
00000110: 5321 683e a9de 70bd 588a 03bd c6f6 65bd
00000120: 693b a43e 0b66 92bd 4ce0 de3c eee1 5e3e
00000130: da78 babc d2b5 97bc f2bb 763e b800 1e3c
00000140: 7d2c bb3e 027f 66be 5c1c d2bd 9dfa 08be
00000150: 1519 883e 5622 82bc 110e 583e 7fc3 2c3e
00000160: af14 183f 04c0 23be e9e2 f73e 594b 9dbc
00000170: 84ef 86bc a576 98bd 34df 503e b97f ae3c
00000180: f50a 113e cbd4 b5bb 07de 35be 4ac0 c73c
00000190: b51c 7a3e 40c8 01be f244 b73d 94ff fabd
000001a0: 0e5e 66be 5951 0dbe fc02 6dbd 3769 e0be
000001b0: 8cc8 e83e 7c53 37bc 28f8 2e3f 7f57 11bd
000001c0: bc6f 79bc 9458 3c3f fe54 2abc 7259 053e
000001d0: 6075 273d e14c 663d 453a 0a3f 26a8 98bc
000001e0: 3db0 abbe e9e9 0b3e 5506 c03c 11aa 30bc
000001f0: 8921 99bc eb64 4cbc e62c 043e 440e 083e
00000200: 61fe 343c 39b9 2fbc 6669 a8be 7db9 8d3c
00000210: 1dd9 fabc e6d1 ebbe 90c6 53bc 4995 b3bb
00000220: 9104 5abc bedf afbb c971 b8bd edad ecbd
00000230: 8fe8 b6be b05a 793e 3a0a f83b a959 ef3c
00000240: 28e8 a6be a22f abbe 5f37 9d3a b68a 1cbe
00000250: d717 623d ee66 493c 71f3 89be 2ce2 31be
00000260: 31ce 843c 1f52 bf3c 0f32 933d aa6c 2fbe
00000270: d10d 55bd e439 14be 14b7 873e ee48 053e
00000280: 8085 9bbe b499 cf3b 7fa9 0bbe 0931 54be
00000290: 14f7 eb3c e847 b43d 5855 29bd 3ed9 7fbd
000002a0: 2c8c 61be e9a3 08bd 67a7 bcbd 26f0 90be
000002b0: 7f48 c3be 5b1e b63e e7da c3be f69e 7b3a
000002c0: 9d3a ac3d 4a44 a5bc 3e58 343e ed15 aa3e
000002d0: 55f8 c7bd d984 73bd 3838 8c3e fda7 373c
000002e0: e3fd 70be b220 b03e 1b31 aabc 7edd a2bc
000002f0: ad0b aa3b 02a2 f53b b0d0 c7be 26c1 cc3e
00000300: 557f ef3d c15b e43c f8f3 63be 74d5 4abe
00000310: 0823 5abb 1385 043f b8c4 a73d 00be 4c3e
00000320: 8f20 52be a8ad 53be f419 8b3e daec 8ebe
00000330: ca47 33be 2a36 6d3e 3d08 e83e 32e2 dd3e
00000340: 8a24 13be e667 64be 806b bd3e cc87 a23e
00000350: 4ce3 9ebe eef0 40bc 37be 6d3e f7e2 c1bc
00000360: 44aa f83d 2a7d 30bd 4857 19bc 6313 e4b9
00000370: 647c b1bd 23b1 d73d 4df4 38bc d81a c5bd
00000380: b1a2 3cbe 5376 f23c f3f9 e8bc 98dd 21be
00000390: a998 25bc 61f5 7ebc 28b2 083d c576 42be
000003a0: b8a5 c9be b349 e8bd 77a1 ddbc 2d77 64be
000003b0: ab9b ae3e e0bf b33c 8b73 8d3d 0ab9 3cbd
000003c0: f8f6 83bd 0fdf 22be abf0 fdbd 35d8 bdbd
000003d0: 3e2c 433e adde c5ba 845d 1d3c 3711 993d
000003e0: 95c5 cdbb c45b 65bc 401f 98bc eaad 7a3e
000003f0: 1e3d 683e aeb7 ab3c 9c9d d73d bf8c 26bb

fc2.bias f4 [5]
0.037254605 -0.10971335 0.020181365 0.06439405 -0.016441451
00000000: 4998 183d 65b1 e0bd 6453 a53c 07e1 833d
00000010: 39b0 86bc
