Assignment/A2/a2_files/model.pt (torch, 270171 bytes, 5 tensors)

embedding.weight f4 [3165, 16]
000000 00 00 00 00 00 00 00 00 00 00 00 00 00 00 00 00
       0.0 0.0 0.0 0.0
000010 00 00 00 00 00 00 00 00 00 00 00 00 00 00 00 00
       0.0 0.0 0.0 0.0
000020 00 00 00 00 00 00 00 00 00 00 00 00 00 00 00 00
       0.0 0.0 0.0 0.0
000030 00 00 00 00 00 00 00 00 00 00 00 00 00 00 00 00
       0.0 0.0 0.0 0.0
000040 ba 23 3b bf 0a 13 45 bf e8 32 a0 3e ad 94 8c 3e
       -0.7310139 -0.76982176 0.31288838 0.2745718
000050 10 01 a9 3e 69 c2 2e bf 3e bc 2c be f2 cc 35 3f
       0.33008623 -0.68265396 -0.16868684 0.71015847
000060 88 99 c6 3e 7e c6 69 be 1a c0 ce bd cb 62 08 3d
       0.3878901 -0.22829625 -0.10095234 0.03329734
000070 73 a1 18 3f a8 12 39 3f 67 c8 d5 3e 82 e0 ab be
       0.5962135 0.7229409 0.41754457 -0.33569723
000080 4b 94 8f be d4 f6 40 bc b9 71 2e be 7c b0 bb 3d
       -0.28042826 -0.011777598 -0.17035569 0.09164521
000090 dc 9b 8b 3e 11 20 2c 3c c9 32 8b 3e 5b c3 22 3e
       0.2726735 0.010505692 0.27187183 0.15894835
0000a0 88 70 76 bb 2c e8 b3 3e 02 c9 a5 bd c2 1c 16 3d
       -0.0037603695 0.3513807 -0.0809498 0.03664852
0000b0 1b 81 6d 3e 31 dd 81 3f 12 3c 17 bf d9 22 34 bf
       0.23193781 1.0145627 -0.59076035 -0.70365673
0000c0 a2 38 98 be 46 6e c6 3e 2b 97 f2 3e e3 cd 94 3d
       -0.29730707 0.38756007 0.47380957 0.07265832
0000d0 28 e5 bf bd 63 04 34 be 48 39 77 3e 08 11 3a be
       -0.0936988 -0.17579798 0.24142945 -0.1817056
0000e0 cc 89 45 be 6c c4 a8 3e 1f 24 30 3f 03 f8 c3 3f
       -0.19290847 0.32962358 0.68805116 1.5310062
0000f0 18 98 2e bf 64 12 0d bf aa b6 53 3f 70 5a 7e be
       -0.68200827 -0.55106187 0.827006 -0.24839187
000100 87 ec c1 bd a3 4a 8a 3e 6f 3a 19 3f 73 96 1a 3f
       -0.09468942 0.27010068 0.5985479 0.6038582
000110 5f a2 54 bf 25 ec 96 3f a8 73 a3 be f9 6d 8e 3e
       -0.8306026 1.1790816 -0.31924176 0.27818277
000120 11 91 2a bf a6 15 e1 be a6 5b 15 be 48 ef 94 be
       -0.66627604 -0.4396183 -0.14585742 -0.29088807
000130 f0 24 f1 be 75 0f 21 3f 12 72 3f be d3 dd d3 3e
       -0.47098494 0.6291421 -0.18695858 0.41380176
000140 90 e5 2d bd c4 9c 8a 3e 65 4a 11 bf eb 84 b7 bd
       -0.042455256 0.27072728 -0.5675414 -0.08960899
000150 97 51 bd 3e 53 91 1a be ad da f6 3e ed 92 32 3e
       0.3697631 -0.150945 0.4821371 0.1743886
000160 92 a2 88 3d 3a 85 87 3f 71 2b 50 bf 53 ca d0 3c
       0.06671633 1.0587533 -0.81316286 0.0254871
000170 7f c5 ad be a9 8e a7 be 3f fa 84 3d 65 c0 d5 3e
       -0.3393974 -0.3272603 0.06493043 0.41748348
000180 da d4 3b 3f b2 da 23 bf 6c 24 98 3d dd cf 9d 3d
       0.7337166 -0.6400558 0.07428822 0.077056624
000190 ed b2 9b bf 33 fe 2a bf 58 e0 80 bd ca 29 fd 3d
       -1.2163979 -0.6679413 -0.0629279 0.12361486
0001a0 47 36 8f 3e fd d8 6c 3d 78 09 22 3e 02 fb f9 3d
       0.27971098 0.057824124 0.15823925 0.12206079
0001b0 cb 69 91 3e 64 08 72 be 2b 5c ca 3e 4c 5d c0 be
       0.28401026 -0.23636013 0.39523444 -0.3757118
0001c0 99 36 80 3d e1 40 8b bf 9a fb ab 3c 87 84 8e 3d
       0.06260414 -1.0879174 0.020993996 0.06958871
0001d0 ae a9 89 3e d3 63 3e 3e 0a b8 d2 be 9a f6 ea 3d
       0.26887268 0.18592767 -0.41156036 0.11472817
0001e0 d5 2c b9 be 00 33 9c be 98 20 62 3f 2e d3 67 be
       -0.36167017 -0.3050766 0.88330984 -0.22639152
0001f0 09 e8 9a 3c 2d cd 09 3f 84 0c b1 3e 41 e4 0d 3f
       0.018909471 0.538287 0.3457986 0.5542641
000200 91 c4 be be ac dc 53 be 2c e8 df be b5 2b 5c 3e
       -0.37259343 -0.20689648 -0.4373182 0.21501048
000210 2a 89 a6 3e e9 b8 3c 3e 33 93 5d 3f cf ac f0 be
       0.32526523 0.18429913 0.86552733 -0.47006842
000220 59 f0 72 3d 84 4c 9c 3d 36 30 5d be c7 de fe be
       0.059311245 0.07631782 -0.21600422 -0.4977934
000230 f5 5a c9 3c 50 2b e9 be 39 93 68 bd e3 b2 06 3e
       0.024579505 -0.45540857 -0.056781027 0.13154177
000240 2b ca 52 be 2b 02 bc 3c f7 62 bb 3e 4f ea fe 3e
       -0.20584933 0.022950253 0.36598942 0.49788138
000250 a0 86 8e 3e 2d 57 e4 3d 06 c0 16 be d5 0b 41 be
       0.27837086 0.1114944 -0.14721689 -0.1885217
000260 d3 5a 86 3d 04 5b b7 be 51 1b 4d bf 1d 95 a7 3c
       0.06560292 -0.35811627 -0.80119807 0.020456845
000270 03 93 cb be 30 53 5e 3d 45 ae e1 3d 06 2f 0c 3e
       -0.397606 0.054278553 0.110195674 0.13689813
000280 c3 6a cd 3e 77 5a ea be 80 6d 8c 3e 6a c9 0d be
       0.40120515 -0.45772144 0.27427292 -0.13846365
000290 27 ca 3c 3f f8 9a b4 be 95 d7 bd 3e 19 56 03 3e
       0.7374596 -0.35274482 0.3707854 0.12825812
0002a0 ef 4e 71 3e ac 83 56 3e 5d 38 b7 3d 42 cf 61 3e
       0.23565267 0.20948666 0.08946297 0.22051719
0002b0 e3 7e 08 be e8 cb 11 bf 30 44 d1 3e 73 21 3b bf
       -0.13329653 -0.5695176 0.40872335 -0.73097914
0002c0 28 2d 2b 3f 85 6c 4f be 43 21 14 bf 48 48 42 3e
       0.6686578 -0.2025624 -0.57863253 0.18972886
0002d0 cc c6 9b 3c d1 bd 16 3d cc 43 26 3f 45 5e 54 3f
       0.019015692 0.036802117 0.649472 0.82956344
0002e0 b8 f7 2a bf f8 f7 19 bf 89 89 5e 3f 0d b8 13 3e
       -0.6678424 -0.60143995 0.8692861 0.14425679
0002f0 21 82 96 3e 3a 19 cc be eb a6 d4 be fa fd 4a bf
       0.29396155 -0.39862996 -0.41533598 -0.7929379
000300 2c 18 0a be 6b ce 98 3e e9 28 74 3e b9 55 0c 3e
       -0.13485783 0.29844984 0.23843731 0.13704576
000310 3b 7d b4 3e 31 3e 76 3e 6f 79 0d 3d 4f 92 db 3e
       0.35251793 0.24047162 0.034539636 0.42885062
000320 5e 4f f5 bc 42 55 ab be 91 46 af 3e bb a5 b0 3e
       -0.029945072 -0.33463484 0.34233525 0.34501442
000330 ed 0e 9f 3e f4 9b 34 bf 13 2b 23 3f 5c 90 01 bf
       0.31066075 -0.70550466 0.637376 -0.506109
000340 45 95 f2 3e 9e 3f 52 3d 1d d0 f4 3e 2e ce 6f 3e
       0.4737951 0.0513302 0.47815028 0.23418495
000350 a7 8f 01 bf d4 c3 f2 3e ea 4a 11 be f9 8a 25 bf
       -0.5060982 0.4741503 -0.14188734 -0.6466518
000360 bb 52 f8 3e 27 b7 26 3f 20 b4 95 be 25 4c 26 3e
       0.48500618 0.6512322 -0.29238987 0.16239984
000370 b0 15 fe 3d 00 b2 9e 3c a3 41 ca be ea e0 eb bd
       0.1240648 0.019371986 -0.39503202 -0.11517508
000380 ae 3f 17 be f3 4b 35 3f 68 14 9f 3d fb eb 26 3e
       -0.14770386 0.70819014 0.07767564 0.16300957
000390 58 24 7c bd f5 de 92 3e 84 51 ea bd 9c 28 18 bf
       -0.061558098 0.28685728 -0.11441329 -0.59436965
0003a0 97 ec 68 bd 80 cc 6c be c6 d3 6b be 08 11 c6 3e
       -0.056866255 -0.23124886 -0.23030004 0.3868487
0003b0 4f 6b c9 be 98 ea c1 3e d5 31 08 3f fb cb 4c bf
       -0.39339682 0.37874293 0.5320104 -0.7999875
0003c0 80 4f 20 bf 77 ed 44 bf c4 38 3c 3e 99 43 10 bf
       -0.6262131 -0.7692484 0.1838103 -0.56353146
0003d0 5f 75 12 3f f9 61 01 3c 7f cd 96 3e 63 5d e2 bd
       0.57210344 0.007896894 0.29453656 -0.11052968
0003e0 cf 00 b6 bc a8 81 e5 3e f3 8b d2 3e 19 eb be be
       -0.022217182 0.44825482 0.41122398 -0.3728874
0003f0 dd eb e2 be 36 2b ea 3d 74 39 5c 3f 81 7c 7e 3d
       -0.44320574 0.11434023 0.86025167 0.062130455

fc1.weight f4 [200, 16]
000000 57 bb f2 3d b8 bb 7b 3d 16 fb 73 be b4 73 a4 3e
       0.118521385 0.06145832 -0.2382625 0.32119524
000010 89 b1 f1 bd a3 24 28 be 4a b0 0c be 3a 14 29 3e
       -0.1180144 -0.16420226 -0.13739124 0.16511622
000020 67 17 09 bd 8c b3 2c be 02 a2 ec 3b 6d dd 70 3e
       -0.033469584 -0.16865367 0.0072214613 0.23521967
000030 f9 cc 46 3d 73 21 f4 3c de 50 da bc c7 d7 db 3d
       0.04853532 0.029801106 -0.026649889 0.10734516
000040 d6 8a b6 be 2e 21 9e bd bc 7e 99 bd 26 ca 01 be
       -0.35652798 -0.07721172 -0.07494876 -0.1267477
000050 c2 87 12 3e dd d2 f7 3d 02 fa cb bc 7e 5f ff bd
       0.143096 0.12100766 -0.024899486 -0.124693856
000060 2e d3 c4 3d f7 75 d1 3d a9 f0 61 bd fd a4 c5 3c
       0.09610592 0.10227578 -0.055161152 0.024126524
000070 f5 71 b8 bc b6 0a 11 bb d6 29 12 be d2 cf 2f 3e
       -0.022515276 -0.0022131628 -0.14273772 0.17169121
000080 f5 a5 bf 3d 92 5c 80 3d 35 f6 6d bd 12 af 0b be
       0.09357826 0.062676564 -0.05809613 -0.13641003
000090 64 1f 5a be 92 33 89 3e 4b c6 40 3e 03 b0 c9 3d
       -0.21301037 0.26797158 0.18825643 0.09848025
0000a0 e3 97 f9 3d 8c 21 b3 3d 8b 43 eb bd d3 f0 aa be
       0.12187173 0.08746633 -0.11487492 -0.3338686
0000b0 14 d8 81 bd 41 c7 62 3e 81 08 0a be df 68 00 be
       -0.06340042 0.22146322 -0.13479806 -0.12540005
0000c0 48 24 4c 3e a1 8d 17 3d 72 f2 b0 bc 87 16 b5 3e
       0.19935715 0.037000302 -0.021599982 0.3536875
0000d0 f4 7c cb bd 71 30 c2 3b 2f bf 5d be c7 2f 6d 3d
       -0.09935942 0.005926185 -0.21654962 0.057906892
0000e0 7f 61 17 bd c7 2b 47 be 61 5a 62 bd c9 20 43 3e
       -0.036958214 -0.19450293 -0.055261973 0.19055475
0000f0 f5 c0 73 bd 15 aa 3f bd 9c 60 52 bd c8 38 d7 bc
       -0.05951019 -0.046793062 -0.051361665 -0.026272193
000100 70 3b 42 be 89 b7 c3 bd 2c 9c 69 3d 57 96 87 3e
       -0.18967986 -0.09556491 0.057033703 0.26481888
000110 34 bf 00 3e 20 ed 26 bd fc f0 be be 8b 59 04 bd
       0.12572938 -0.040753484 -0.3729323 -0.032311957
000120 04 09 40 be d0 68 ab bd b6 2b 82 bd f1 26 2f 3e
       -0.18753439 -0.08369601 -0.063559934 0.17104699
000130 9a 91 14 be cc ff 04 bd ac 79 9d be 9e f8 b9 3e
       -0.14508668 -0.03247051 -0.3075689 0.36322492
000140 f6 11 96 3e 27 fe da 3c e1 a7 37 39 0b 72 9f 3e
       0.29310578 0.026732517 0.0001751478 0.31141695
000150 6f 27 58 be 81 c6 42 bc aa 23 fb bd 12 a1 7f 3e
       -0.21108793 -0.011888147 -0.12262662 0.24963787
000160 8c 78 45 be d3 14 61 be 5f 0f 43 3d 1b 7e 2d bd
       -0.19284266 -0.219806 0.04762208 -0.04235659
000170 b4 87 f8 bc 6c 74 88 bd 27 98 07 be 07 7a 04 b9
       -0.030338146 -0.06662831 -0.13241635 -0.0001263396
000180 3c 2e 5f bd 38 be 64 bd a1 0d c6 bb cd 55 82 bb
       -0.054487452 -0.05584547 -0.006044105 -0.0039775134
000190 24 01 50 3d 1c 41 08 3d 69 d0 ba bd fe 5d cb 3d
       0.050782338 0.03326522 -0.09121782 0.09930037
0001a0 5c 9c c5 bd d3 34 d5 bd a7 80 e4 3d 99 4b eb bd
       -0.09648964 -0.10410466 0.11157351 -0.114890285
0001b0 2f 2e 11 3d 40 47 e0 3c c6 f1 87 3d a1 52 c6 3d
       0.035444435 0.027377725 0.066379115 0.09683729
0001c0 35 d1 7a be d6 1f ce 3c 4d 24 5c 3e c3 26 3c be
       -0.24493869 0.025161665 0.21498223 -0.18374161
0001d0 16 ff 6f 3e 4d f5 10 bd 2b 5d 85 bd 40 0b a3 be
       0.23437151 -0.035390187 -0.06511911 -0.3184452
0001e0 76 4b 81 bd f0 0d dc 3d d5 25 c7 3b 3d 58 0e be
       -0.06313221 0.10744846 0.006077508 -0.13900848
0001f0 10 86 96 bd 8f 5a fe bd 8c a7 d3 3d 74 57 82 3d
       -0.07349789 -0.124196164 0.103346914 0.063643366
000200 1d 78 5a be 40 20 b1 bd 58 c7 76 be 0d d9 48 be
       -0.21334882 -0.08648729 -0.24099481 -0.19614048
000210 27 9a cc bd 26 57 d9 3d 9a b4 97 3c eb 1b 15 3c
       -0.0999034 0.10612325 0.018518735 0.009100894
000220 90 bc 0a 3e db ef 97 bd 25 67 31 be 36 13 96 3d
       0.13548493 -0.07418796 -0.17324503 0.07327883
000230 b7 a2 c4 3d 52 4d 3e 3e 40 a2 4a be 7b 75 81 3e
       0.09601348 0.18584183 -0.19788456 0.25284943
000240 5c 1a 30 3d 3a 18 6c 3d 69 45 b9 bd 18 28 ac 3d
       0.04299389 0.05764029 -0.09046442 0.08406085
000250 a1 df e8 3d 44 69 a3 bd 19 a9 c0 bd 60 6d 32 3d
       0.11370779 -0.07979062 -0.09407253 0.04356134
000260 3c 89 c0 3b 92 a7 c9 bd a5 3f f4 3d b8 7e 0c 3e
       0.0058757346 -0.098464146 0.11926202 0.13720214
000270 0f 6f a6 3d 06 f1 65 3d 6d f1 0b 3d cb 9f 81 bd
       0.081266515 0.05613806 0.03416579 -0.06329306
000280 c5 78 30 3d b9 3c 08 3d 53 66 39 3d 56 72 05 3e
       0.043083925 0.033261035 0.0452636 0.13031897
000290 2c 17 3e be 4c d4 02 bc 5e 62 61 be 8a 84 37 3d
       -0.18563527 -0.007985186 -0.2201018 0.044804133
0002a0 13 9a 40 be aa 80 3c be 1f 02 53 bd 35 7a ed bd
       -0.18808775 -0.18408456 -0.051515695 -0.11595575
0002b0 f2 bc 33 be c0 ed c1 3c 22 36 73 be f2 5e 10 3e
       -0.17552546 0.023672938 -0.23751119 0.14098719
0002c0 ac 77 5a be 24 a7 87 3d f3 50 a1 3d f5 60 1a be
       -0.21334714 0.066236764 0.07876768 -0.15076049
0002d0 ce 31 89 3e e4 18 39 3d 58 fd eb bc 86 e7 3b be
       0.2679581 0.045189753 -0.028807327 -0.18350038
0002e0 b6 9d 10 3e 4a c6 50 3e 92 44 bd ba b4 83 e6 3b
       0.14122662 0.20388141 -0.0014439991 0.007034743
0002f0 8d 26 0a 3e cf a1 b9 bd e1 3a 82 3d a5 a6 c6 3b
       0.13491268 -0.09064066 0.063588865 0.006062346
000300 f5 78 f9 3c b8 da 51 3d d8 6b 5a be 27 93 74 3c
       0.030453185 0.051233977 -0.21330202 0.014927662
000310 e6 30 7a bc d4 9c 62 bb 28 28 8a bd e6 4e 0d 3b
       -0.015270447 -0.003457834 -0.067459404 0.002156192
000320 ad 17 2d 3e 93 37 0d bc 59 a0 c8 3d d6 a5 24 3e
       0.16903563 -0.008619207 0.09796209 0.16078886
000330 56 f0 c9 3d 30 b1 14 bd d7 31 54 3d 87 40 38 3e
       0.098602936 -0.03630179 0.051805343 0.17993365
000340 0f fd ab 3d a0 31 91 bd 81 fd 91 3d 74 4d d3 3d
       0.083978765 -0.07089543 0.0712843 0.103175074
000350 dc 42 56 3d 64 bc 0a 3c 7b 4d 55 be 98 55 fd 3d
       0.052309856 0.008467767 -0.20830338 0.12369841
000360 11 d1 7b 3c f7 49 3a 3c 1d cc 99 bd f5 b4 37 3e
       0.0153696695 0.011370174 -0.07509635 0.17940123
000370 e8 d7 02 be 07 6f c7 bd f3 a2 13 be 23 e2 22 3e
       -0.12777674 -0.09737974 -0.14417629 0.15906577
000380 ea e2 fa bd 74 e4 47 bd e0 81 91 be ed 56 be bd
       -0.12250312 -0.048801854 -0.284194 -0.092939235
000390 c3 90 bb 3c 6a 3e 8a bd 19 4e db 3d 8d 97 55 bc
       0.022896176 -0.06750186 0.10708255 -0.013036621
0003a0 37 78 6f 3e 1d 49 24 bb a4 8c a4 bd fd 78 d1 3c
       0.23385702 -0.0025067993 -0.080346376 0.025570387
0003b0 4a 8c 22 3e 58 df 1d 3e 48 fb 6c 3d e1 cf f6 3c
       0.15873829 0.1541723 0.057856828 0.030128421
0003c0 de 83 53 bd 57 be 27 bd 82 8a e7 3d dc af 4c bd
       -0.05163943 -0.040953007 0.11305715 -0.0499724
0003d0 f6 4f 20 3c ea b6 a8 3d f2 bb b2 bd 98 a0 be 3d
       0.009784689 0.08238013 -0.08727254 0.093079746
0003e0 eb f2 a4 bb 38 ec 1d bd 52 36 2d 3d f3 5a a5 bc
       -0.005033841 -0.038555354 0.042288132 -0.02018497
0003f0 00 d6 78 bc bc 98 83 bd ba 0d dc 3c 94 3b 25 3b
       -0.01518774 -0.06425616 0.026862014 0.0025212513

fc1.bias f4 [200]
000000 8e 65 c0 3d 10 23 26 3e 9f cf 1f 3e 2f f7 a4 3d
       0.0939437 0.16224313 0.15606545 0.08054959
000010 79 ae 5a 3e 11 95 fa 3d 7d 9b 74 bd 49 42 0c 3e
       0.21355619 0.122354634 -0.059718598 0.13697161
000020 56 f9 35 3e cf 55 a4 3d 89 5e a4 3e c8 09 66 3e
       0.17770895 0.08024179 0.32103375 0.22464669
000030 4a 37 2c 3e cc 0a b9 3d ee 2f 04 3e da ad ca bc
       0.16817966 0.090352625 0.12908909 -0.024741102
000040 82 6b d4 3d e9 ff 87 bd cd 30 a4 bd 70 f0 4a 3e
       0.10372068 -0.06640608 -0.080171205 0.19818282
000050 22 c1 9f 3d f5 0b 0b 3e 2c a9 47 3e 07 4a 40 3e
       0.07800509 0.1357878 0.19498128 0.18778239
000060 03 b5 08 3d f1 c6 19 3e dd f6 ab 3d 36 e3 99 3e
       0.03337575 0.15017296 0.08396695 0.3005616
000070 91 77 47 3d 49 5e 43 3e b2 b6 83 bc 49 12 88 3e
       0.04869801 0.19078936 -0.016078327 0.2657645
000080 71 b0 36 3e 93 c0 41 3e 10 09 93 bd c2 a9 3a 3e
       0.17840745 0.18921117 -0.07179463 0.1822882
000090 a7 03 22 3e 5c ea c4 3c f2 8b 8f 3e a8 c6 5b 3e
       0.15821706 0.024037533 0.28036457 0.214625
0000a0 6d f5 93 3d 04 e9 a6 3e bf 4e 0d bc 22 10 8d 3d
       0.07224546 0.32599652 -0.008624732 0.06887843
0000b0 6c bb 2c 3e 79 2d fa bd 21 68 d4 bd 52 e3 6c 3d
       0.16868371 -0.122157045 -0.103714235 0.057833977
0000c0 fe cf 56 3e 0d da 96 3d 66 d0 77 bd 83 5d ba 3c
       0.2097778 0.07365809 -0.06050148 0.022749668
0000d0 00 aa 96 3e 8d 82 a0 3d 69 aa 60 3e 76 cf 50 3d
       0.29426575 0.078374006 0.21940006 0.0509791
0000e0 1a 23 48 3c d7 f1 bc bd f0 5b 13 3d 0d b1 0f bd
       0.0122154 -0.09225815 0.03597635 -0.03508096
0000f0 ea 3b 67 3d b9 a4 53 3e 7f 97 86 bd 82 07 76 3e
       0.056453623 0.20668305 -0.06571864 0.24026302
000100 b0 7b b3 3d 72 40 08 3e 47 17 2c 3e 10 3c 74 3e
       0.08763826 0.13305834 0.16805755 0.23851037
000110 48 26 9a 3e 19 47 c8 bd ec 72 35 bd 52 b3 97 3d
       0.3010733 -0.09779186 -0.04429905 0.074072495
000120 ec bb b8 bb e3 a5 17 3e 92 9f 02 3d 92 35 a2 3d
       -0.0056376364 0.14809375 0.03189046 0.07920374
000130 d7 93 2b 3e 7c 47 4d bd 07 b1 da 3d 71 dd 30 3e
       0.16755615 -0.050117 0.106782965 0.17271973
000140 b8 bd 9b 3e cc e8 8d 3e 2a 5f 6c 3e 87 08 0a 3e
       0.3041818 0.27716672 0.23083177 0.13479815
000150 48 57 19 3e f8 41 7a bd 9f 45 79 3d 9e 01 21 3e
       0.14974701 -0.06109807 0.06085741 0.15723273
000160 b6 70 12 3e ab 67 4d 3e 69 ac 24 3e 95 ec 9d bd
       0.14300808 0.20059077 0.16081394 -0.0771114
000170 30 59 91 bd bd 8e 05 bd 3e d2 73 3d 18 5e 94 bc
       -0.07097089 -0.03260683 0.059526674 -0.018111274
000180 ad 4e 5a 3e 0a 61 3e bd 2f f5 0b 3e 37 21 8d 3e
       0.21319075 -0.046479262 0.13667749 0.27564403
000190 2e c3 a9 3e c0 43 06 3e 8e 8e 7f 3e 01 d1 43 bd
       0.33156723 0.13111782 0.24956724 -0.047806744
0001a0 aa 71 e8 3d 44 c4 2a 3d 0c e3 57 bd 63 7c 41 3e
       0.11349805 0.04169108 -0.052706763 0.18895106
0001b0 9b f9 5f 3e 7c ca c9 bd c7 4c 6f 3e 65 2f 86 3d
       0.2187256 -0.09853074 0.23369132 0.065520085
0001c0 42 8c df bd 77 0c 3c 3e 85 eb 97 bd 8d 38 b8 3c
       -0.10915424 0.1836413 -0.07417969 0.022487903
0001d0 79 49 d9 3d f7 2b 61 3d 12 40 44 3d 6b aa 91 3c
       0.10609717 0.05497357 0.047912665 0.017781457
0001e0 68 65 70 3e 13 8f 42 3e 73 a0 93 bd 52 39 d6 3d
       0.23476183 0.18999891 -0.07208338 0.10460152
0001f0 5e ab 09 3e 0e bc 00 3d 3f e5 8b 3e c4 75 cd 3d
       0.13444278 0.031429343 0.27323338 0.10032228
000200 f9 25 c5 bd 95 fd e0 3d d3 52 27 3e eb 4d 71 bd
       -0.09626383 0.10985867 0.16340189 -0.0589122
000210 e3 f4 ab bd 68 10 58 3d d2 f4 57 bd 71 5b 85 3e
       -0.08396318 0.05275002 -0.052723713 0.26046327
000220 fc fb e0 bc b1 eb cb bd 07 46 81 3d af 28 57 3e
       -0.027463906 -0.09957064 0.06312185 0.21011613
000230 87 2e 9c 3e 24 91 1a 3e c7 71 70 bd 6a a0 14 3c
       0.30504248 0.15094429 -0.058702257 0.009071449
000240 5e c6 6c 3e dc c5 34 3d c2 b6 a8 bd 99 54 26 3e
       0.23122546 0.044134006 -0.08237983 0.16243209
000250 ce 32 9d 3e cc aa 89 3d 32 91 90 3e 6a 22 22 3e
       0.30702823 0.0672203 0.28235775 0.1583344
000260 7e d7 83 3c 28 5b b7 bd b9 f3 34 3d 0f fe ca 3d
       0.016093966 -0.089529335 0.044177745 0.09911739
000270 d0 b2 01 bc 82 f8 47 3e 29 cf 49 3e e1 c8 85 3e
       -0.007916167 0.19528392 0.19707932 0.2612982
000280 bf 8a 50 3e a5 e5 cb bd 3a 93 23 3d de 69 c1 3d
       0.20365427 -0.099559106 0.039935328 0.09444021
000290 c0 7a d6 bd 5b 73 0c 3e 2d 16 85 3d fd ac 0e 3e
       -0.104726315 0.1371588 0.0649837 0.13933177
0002a0 d2 b0 52 3e c7 2a 77 3e a7 e2 c4 bd 2b 74 25 3e
       0.20575264 0.24137412 -0.09613543 0.16157596
0002b0 a2 ce 06 3e a3 f5 a8 3d f0 07 48 3b 35 cc 93 bc
       0.13164762 0.082499765 0.003052231 -0.01804171
0002c0 a5 d9 dc 3d 3c e8 8c bd 09 02 67 3e 6e 50 5f 3e
       0.107837 -0.06880233 0.2255937 0.21808025
0002d0 c0 7e 47 3d 72 47 3c 3e 14 72 64 3e 74 7f 83 3e
       0.048704863 0.18386629 0.22309142 0.25683177
0002e0 d8 6b 55 3e 9e 1f 4c 3e 04 51 2b 3e 14 2c c5 3c
       0.2084192 0.19933936 0.16730124 0.02406887
0002f0 6c d5 54 3d a5 49 70 3d e4 91 41 3e e9 b6 23 3d
       0.051961347 0.058663983 0.18903309 0.03996936
000300 de f7 77 3d 5b 5e 33 3e 9e 25 9b 3d 62 9a 6b 3e
       0.06053912 0.17516463 0.07575534 0.23008111
000310 74 b0 b0 bd 4b 89 64 3d ab 3b 46 3e 29 57 48 3e
       -0.08627406 0.055794995 0.19358699 0.19564499

fc2.weight f4 [5, 200]
000000 39 e4 ae bd 04 2e a0 bd 2c 46 49 be e6 2b 00 be
       -0.08539624 -0.07821277 -0.19655675 -0.12516746
000010 7b 8b bd be f3 28 44 be 22 22 6e 3c 97 76 03 3e
       -0.37020478 -0.19156246 0.014534505 0.12838207
000020 80 76 c1 be 58 c0 8a 3d aa a4 ea be 00 c5 69 3e
       -0.3778572 0.06774968 -0.45828754 0.22829056
000030 76 2f f0 3c ad 63 01 be 70 1f c4 3c e2 d0 2e 3c
       0.029319506 -0.1263568 0.023940772 0.010669919
000040 84 da e7 3e 54 ac e3 3c fd 8b 92 3c f5 26 b7 be
       0.45283902 0.027792133 0.017889017 -0.3577191
000050 cc 87 15 be bd 9b 31 be 47 27 ac 3d 8e e4 5b be
       -0.14602584 -0.17344566 0.08405929 -0.21473905
000060 ca bd 7b bd f4 81 8e be 3c 3d bb bc 90 e5 80 3e
       -0.061460294 -0.2783352 -0.022856347 0.25175142
000070 85 d4 88 3d a7 f7 22 be 74 d1 fb 3c 40 7d 8a be
       0.0668116 -0.15914784 0.030739523 -0.27048683
000080 63 98 bc 3e be ce 44 bc 67 55 48 bd 16 65 1f 3e
       0.36835012 -0.012012182 -0.04890957 0.15565905
000090 0b 88 73 bd 45 61 fe bc 34 52 b5 bd 5d c9 97 be
       -0.059455913 -0.031052241 -0.088535696 -0.29645815
0000a0 c3 4b be bd e4 1e 89 3e dc 0e c6 3c 53 f2 d1 3c
       -0.09291794 0.2678138 0.024177007 0.025628245
0000b0 b0 97 33 3e 8b ef ab bc 13 19 bc 3c 32 ab ca bd
       0.17538333 -0.020988246 0.022961175 -0.09895934
0000c0 f1 be 47 3e 52 0a 64 bd a6 fc 43 3b 4c 1a e7 bc
       0.19506432 -0.055673905 0.002990523 -0.028210782
0000d0 e7 bb c3 be 89 11 1d 3b 99 52 79 bd 92 c4 a1 3d
       -0.38229296 0.002396675 -0.060869787 0.07898821
0000e0 31 43 f3 bc 38 3a 79 3c cb 75 b6 ba 7a 48 7e 3d
       -0.029695125 0.015211634 -0.0013920603 0.062080838
0000f0 57 64 23 be a0 c5 69 3b b7 cc be bc 66 08 04 bd
       -0.15956245 0.0035670772 -0.023290975 -0.032234572
000100 3f 73 4f bd f3 05 a7 3c c9 69 ae 3e 20 fb b8 be
       -0.050647017 0.020388579 0.34065083 -0.36129093
000110 1e 79 b0 3e e9 0d 94 bc 51 07 85 bc 8f f1 c2 bd
       0.34467405 -0.01807304 -0.01623884 -0.0951873
000120 6b 72 ab bc 5c f2 61 be 41 85 3a bd 2f 86 95 bd
       -0.020928582 -0.22065109 -0.045537237 -0.07300984
000130 30 39 4f 3e fa 2c 80 bc 71 12 0e bc 64 42 3e be
       0.20236659 -0.015646446 -0.008671389 -0.18580014
000140 ef a4 33 be 60 7f ce be 01 07 bd be 7f c6 f0 3d
       -0.17543386 -0.40331554 -0.36919406 0.1175661
000150 6d e5 49 be 24 d7 98 bc 6b fd 14 be 98 b5 64 be
       -0.19716425 -0.018657275 -0.14549796 -0.22334898
000160 a0 e2 03 bc 61 34 e6 3c f0 22 4f be 9c a0 ff bc
       -0.008049637 0.028101148 -0.20228171 -0.031204514
000170 61 ee b6 bc b5 b9 7f 3c 6f a3 87 bd 08 15 24 3c
       -0.022330465 0.015608241 -0.06622969 0.01001478
000180 86 a2 72 3d b4 1d 66 3c 17 0f 7f be 19 85 b0 3e
       0.059237026 0.014045168 -0.249081 0.34476545
000190 0a 0f 31 3d b9 6e 25 3d d1 28 82 3e 3b 53 03 3d
       0.043227233 0.040388796 0.25421765 0.032061797
0001a0 33 11 fc bc fb 15 41 be 2d 5a a3 3c 23 27 c6 3e
       -0.03076992 -0.18856041 0.01994046 0.38701734
0001b0 24 e6 0f 3f d7 f3 01 bc 92 e6 cb 3d ea 24 6a bd
       0.5621054 -0.007931671 0.09956087 -0.05716411
0001c0 38 a9 a9 bc 69 e8 c4 3d 05 ad bd bb 10 61 d7 3b
       -0.020710573 0.09614641 -0.005788448 0.00657285
0001d0 30 4e be bd eb 69 22 be af ee 8e bd 22 71 6e 3d
       -0.09292257 -0.15860717 -0.06979119 0.05821336
0001e0 71 cd 02 3e a6 ce 6f be 09 97 af 3c 19 94 39 3e
       0.12773682 -0.23418674 0.021434324 0.18122901
0001f0 0f 04 42 3c 59 6f e6 bd 09 05 9d 3e e8 78 bd bd
       0.011841788 -0.11251707 0.30667904 -0.09251577
000200 ef e5 03 bc 02 4e 21 be 66 cf 70 bc 82 05 98 3c
       -0.008050426 -0.15752414 -0.014697885 0.018557314
000210 40 59 11 bd b9 9f 39 3e 27 bd a1 bc 28 00 d0 3d
       -0.035485506 0.18127336 -0.019743515 0.1015628
000220 83 cd 1a bd f6 d2 e7 bb 44 11 f9 3d 03 53 5c be
       -0.037793647 -0.007074709 0.12161496 -0.21516041
000230 97 4e 27 be af 57 1e 3d f2 68 eb 3c 4f c2 fc bc
       -0.16338573 0.03865784 0.028736565 -0.030854372
000240 1c 50 d8 be 36 ca 4c bd 67 de f0 3b 9b f7 ae bd
       -0.4224862 -0.04999753 0.007350731 -0.08543321
000250 5b 91 9f 3e a1 5b 13 3f fe b8 87 3e 34 9f 7e 3e
       0.31165585 0.5756169 0.26508325 0.24865419
000260 50 4b 44 bc 75 2a 95 3c 94 01 4d be b6 c2 86 3e
       -0.0119808465 0.018208722 -0.20020133 0.26320428
000270 25 15 59 bb 9d 5c 58 be 96 7d 80 3e f2 0d b0 3e
       -0.0033124175 -0.21129079 0.25095814 0.3438564
000280 4e e0 08 3f d2 36 b6 3b 9d 40 ff bd 53 e4 8d bd
       0.5346726 0.0055607343 -0.12463496 -0.06928315
000290 d3 59 e4 3c 0f 27 5f 3e 44 dd 88 bd 1e 0a 41 be
       0.027874863 0.21792243 -0.06682828 -0.18851516
0002a0 3b 82 79 3e 0a 50 5e 3d 38 20 04 bc b3 50 8a be
       0.24366085 0.05427555 -0.008064322 -0.27014694
0002b0 f5 d9 2c b9 92 60 45 be a2 b1 3a 3b 7e 62 86 bb
       -0.00016484394 -0.1927512 0.0028487225 -0.0041010967
0002c0 42 11 6e 3e c6 d0 a9 bc 77 b5 b5 be 25 1c c0 3e
       0.23248771 -0.020729434 -0.3549001 0.37521473
0002d0 2d e5 f0 bc 68 8d 81 be 8e 39 c6 be 4a 7a b0 3e
       -0.029406155 -0.25303197 -0.38715786 0.344683
0002e0 1b cb 97 be 83 2d c9 3d 92 ae 4e be 78 66 22 bc
       -0.29647145 0.09823134 -0.20183781 -0.009912126
0002f0 fa dc 47 bd 0a df b4 3e 96 09 e2 3e d6 f8 2a be
       -0.048794724 0.35326415 0.44147938 -0.16696486
000300 83 0f 2d 3f 6b 5b 48 be e6 19 c1 3e 91 78 9d 3e
       0.67601794 -0.19566123 0.3771507 0.30756047
000310 90 29 3c bc 01 44 d8 bd 73 3e 9b be bd 7d f1 bd
       -0.011484519 -0.10559846 -0.30321082 -0.11791561
000320 b7 eb b6 3d 9c 87 19 3e bb 90 63 3e b8 79 1e be
       0.08931678 0.14993137 0.22223179 -0.1547612
000330 d8 d0 1c be 96 b7 2f be a8 03 af 3c 61 f1 55 be
       -0.15314043 -0.17159876 0.021364048 -0.2089286
000340 10 9a d7 3e 13 bf 3d bc 6c 53 f2 bd 7c 08 27 3d
       0.42109728 -0.0115812 -0.11832318 0.040779576
000350 0e a7 6b 3e 63 ca 4a bd 81 d6 be 3e 16 66 eb bc
       0.23012945 -0.049509417 0.37273028 -0.028735202
000360 67 73 09 be 38 b2 e3 bc 14 d3 9b bc 37 5e d2 3e
       -0.13422929 -0.027794942 -0.019021548 0.41087505
000370 cf 25 b2 bd 88 87 e0 bd 29 3f 69 be 76 d7 b2 3e
       -0.08698618 -0.109633505 -0.22778 0.3493001
000380 51 88 1c be de f9 e2 3e ad 26 e0 bd a0 fe 90 3e
       -0.15286376 0.4433126 -0.10944877 0.28319263
000390 06 04 bf 3d d1 1f 8f be 59 3a 88 3d 3b 29 96 bb
       0.09326939 -0.27953961 0.06651754 -0.004582552
0003a0 61 65 67 3e d2 6d 86 be 32 f9 24 bd 56 fe 92 be
       0.22597267 -0.2625566 -0.040276714 -0.28709668
0003b0 fa c5 d4 bc f8 9c b6 3d c5 c5 86 3e 8f d0 e8 3e
       -0.025973309 0.08916658 0.2632276 0.45471618
0003c0 48 f8 c2 3c 9b be f6 be b4 a3 a9 3d 8a 74 27 be
       0.02380003 -0.48192295 0.08283177 -0.1635305
0003d0 0f 7f 3b bd ca f1 64 bb fa 30 0e 3c 51 8e 05 3d
       -0.04577547 -0.0034934157 0.008678669 0.032606427
0003e0 84 99 97 bd 06 f4 44 3e fe 90 c8 bb f6 e0 5d 3d
       -0.07402328 0.19233713 -0.0061208 0.054169618
0003f0 48 a3 b7 be 4c 90 a5 3e 29 52 c4 3c e3 78 89 bb
       -0.3586676 0.32336652 0.023964958 -0.004195319

fc2.bias f4 [5]
000000 7c c0 27 3d d6 ad 63 3d a4 5c af 3d 41 7b bd bd
       0.04095505 0.055585705 0.08562592 -0.092520244
000010 44 74 c0 bd
       -0.09397176
