Assignment/A2/a2_files/model.pt (torch, 222043 bytes, 5 tensors)

embedding.weight f4 [3165, 16]
-0.50599045 -0.5178737 -0.11260314 -0.19498876 0.38141915 0.3109945 -0.14200509 -0.9505013
0.14485367 -0.5677353 0.1572684 0.13849935 0.05386797 0.5562088 0.50187683 -0.1111237
-0.65609694 -0.7935188 0.3157431 0.19319178 0.256011 -0.593798 -0.13314211 0.8194599
0.42991933 -0.22064857 -0.045931675 0.040940788 0.486636 0.8605063 0.50234723 -0.5729874
-0.25769714 -0.033037804 -0.19603279 -0.009365511 0.2058291 0.09179377 0.35685498 0.2763877
-0.098366894 0.29163045 -0.14986067 -0.07514676 0.19227315 0.9843678 -0.60826963 -0.63789195
-0.28067777 0.38487938 0.50148964 0.08759624 -0.09544708 -0.18451022 0.21539882 -0.1933497
-0.17184539 0.32656786 0.7213095 1.5380605 -0.67269534 -0.52945924 0.7890231 -0.24155512
-0.20430125 0.40913317 0.5539998 0.60827684 -0.5709813 1.1290042 -0.28624105 0.1412575
-0.6478529 -0.384435 -0.11428739 -0.24087712 -0.4279036 0.43262532 -0.17182323 0.43985596
0.03165823 0.28122848 -0.318475 -0.024554752 0.39132985 -0.17584988 0.4555618 0.20343311
-0.10741449 0.97383314 -0.83895123 0.0083861295 -0.50108176 -0.37662295 -0.0007424664 0.24047183
0.8339888 -0.6400091 0.24615832 0.17612778 -1.2095193 -0.7800718 -0.10309719 0.113836735
0.09914249 0.07819115 0.22852871 0.22359686 0.20433287 -0.26787144 0.35701275 -0.36710846
-0.034251604 -1.1025138 0.06001872 -0.055196386 0.34949008 0.13904262 -0.44798744 -0.08713714
-0.21330176 -0.061420046 0.9281567 -0.07930205 0.006709746 0.77840304 0.4470938 0.45741943
-0.49017614 -0.26478717 -0.29959428 -0.099734165 0.3679748 0.3435948 1.0146219 -0.28755724
-0.061658107 -0.12972055 -0.20371011 -0.90407443 -0.16539973 -0.60954666 -0.016144993 0.27822718
-0.15348163 0.049457997 0.12243069 0.46685934 0.10597486 0.20542505 -0.095849365 -0.11218553
0.13832851 -0.27377537 -0.8085684 0.05508233 -0.3386521 0.23042533 0.1169222 0.10997615
0.48755488 -0.44878405 0.17486885 -0.031595096 0.45913422 -0.24481769 0.30958268 0.28377706
0.15033327 0.06358573 -0.031690776 0.19321005 -0.13423674 -0.46657795 0.07158654 -0.6290323
-0.045385785 -0.16427329 -0.7104283 -0.17699982 0.48419946 0.07130983 0.7182973 0.3635519
-0.4722245 -0.313761 0.63304186 0.13073425 0.27308026 -0.42918757 -0.51344156 -0.6051946
-0.34150496 0.26282048 0.15916987 0.19831255 0.098129556 0.41832298 -0.16119134 0.39117235
0.028067412 -0.47879675 0.21317613 0.24119242 0.31384784 -0.5551809 0.26915094 -0.26419362
0.573212 0.03587954 0.47059122 0.37487447 -0.5766395 0.42741233 -0.23558098 -0.58473414
0.4272833 0.5857606 -0.26309133 0.271565 0.1381256 0.027824815 -0.49300212 -0.02694718
-0.12675263 0.6933725 0.11438793 0.13978034 -0.06497603 0.2860306 -0.114859655 -0.5904549
-0.07878818 -0.25429636 -0.19935846 0.3599814 -0.38944018 0.38180062 0.5089179 -0.72058284
-0.6003787 -0.80794376 0.09497603 -0.49437806 0.63868743 -0.05722639 0.23317619 -0.062211584
0.0021653913 0.4503506 0.43344414 -0.16717981 -0.41293892 0.1495923 0.8372598 0.0889958
00000000: 9788 01bf 5f93 04bf 7a9c e6bd 22ab 47be
00000010: 5f49 c33e ac3a 9f3e c869 11be 0e54 73bf
00000020: 8554 143e 1a57 11bf f80a 213e c6d2 0d3e
00000030: a9a4 5c3d b363 0e3f 007b 003f d394 e3bd
00000040: f8f5 27bf 0c24 4bbf 14a9 a13e 11d4 453e
00000050: e013 833e 2503 18bf 6856 08be 20c8 513f
00000060: 631e dc3e b3f1 61be da22 3cbd 87b1 273d
00000070: 5b28 f93e 244a 5c3f d499 003f 4daf 12bf
00000080: e1f0 83be a652 07bd d2bc 48be cd71 19bc
00000090: ddc4 523e 5ffe bb3d b2b5 b63e b082 8d3e
000000a0: 9574 c9bd 9650 953e 1375 19be 8be6 99bd
000000b0: 41e3 443e 87ff 7b3f 8fb7 1bbf e34c 23bf
000000c0: ffb4 8fbe e90e c53e a061 003f a865 b33d
000000d0: c279 c3bd 3ff0 3cbe 8291 5c3e 77fd 45be
000000e0: 3df8 2fbe e733 a73e bda7 383f 2bdf c43f
000000f0: c335 2cbf a48a 07bf 6bfd 493f 3a5a 77be
00000100: 5934 51be e779 d13e eed2 0d3f 08b8 1b3f
00000110: d52b 12bf 3683 903f 308e 92be cea5 103e
00000120: b0d9 25bf aad4 c4be 820f eabd 7ea8 76be
00000130: 2e16 dbbe 1181 dd3e 6ef2 2fbe cd34 e13e
00000140: 0fac 013d 2efd 8f3e 280f a3be 0c27 c9bc
00000150: 635c c83e fe11 34be 653f e93e c550 503e
00000160: 21fc dbbd 214d 793f 82c5 56bf fa65 093c
00000170: e546 00bf b9d4 c0be 14a2 42ba 3f3e 763e
00000180: 4a80 553f a3d7 23bf ed10 7c3e d75a 343e
00000190: 87d1 9abf c9b2 47bf 9f24 d3bd 3c23 e93d
000001a0: 380b cb3d af22 a03d 6e03 6a3e 93f6 643e
000001b0: a33c 513e 7226 89be 60ca b63e a4f5 bbbe
000001c0: 694b 0cbd 2c1f 8dbf 30d6 753d 9b15 62bd
000001d0: 5df0 b23e 3061 0e3e 9c5e e5be f574 b2bd
000001e0: c76b 5abe 9693 7bbd ad9b 6d3f 1d69 a2bd
000001f0: 6edd db3b 6c45 473f 7be9 e43e e132 ea3e
00000200: 5ef8 fabe 2f92 87be 6c64 99be 6d41 ccbd
00000210: 3167 bc3e a8eb af3e 21df 813f b43a 93be
00000220: 368d 7cbd 77d5 04be 6299 50be 6c71 67bf
00000230: 8c5e 29be 400b 1cbf 8142 84bc cb73 8e3e
00000240: 4a2a 1dbe 7894 4a3d f1bc fa3d 3008 ef3e
00000250: 5909 d93d f25a 523e ac4c c4bd 87c1 e5bd
00000260: fda5 0d3e 492c 8cbe 57fe 4ebf 029e 613d
00000270: cf63 adbe 9ef4 6b3e e874 ef3d 2d3b e13d
00000280: cba0 f93e 06c7 e5be d210 333e dc69 01bd
00000290: a413 eb3e 7db1 7abe 9f81 9e3e 3a4b 913e
000002a0: f7f0 193e 3c39 823d 30ce 01bd dbd8 453e
000002b0: 5b75 09be 4ee3 eebe f79b 923d 4308 21bf
000002c0: 72e6 39bd 4237 28be a1de 35bf 713f 35be
000002d0: fee8 f73e e30a 923d 55e2 373f 7a23 ba3e
000002e0: 69c7 f1be 48a5 a0be 080f 223f 33df 053e
000002f0: 2dd1 8b3e 79be dbbe e870 03bf 09ee 1abf
00000300: bdd9 aebe 6890 863e 6dfd 223e 7212 4b3e
00000310: 26f8 c83d 6e2e d63e 580f 25be be47 c83e
00000320: a1ed e53c d924 f5be d84a 5a3e 25fb 763e
00000330: aab0 a03e 5620 0ebf 27ce 893e 6344 87be
00000340: 06be 123f 6df6 123d 55f1 f03e 8cef bf3e
00000350: a59e 13bf cad5 da3e 243c 71be 23b1 15bf
00000360: e0c4 da3e 68f4 153f e8b3 86be 910a 8b3e
00000370: cc70 0d3e def0 e33c c66a fcbe 55c0 dcbc
00000380: 71cb 01be dc80 313f 3844 ea3d 9422 0f3e
00000390: 2712 85bd 9a72 923e 8a3b ebbd 0d28 17bf
000003a0: b35b a1bd 2233 82be a024 4cbe 7b4f b83e
000003b0: b464 c7be 5f7b c33e 7248 023f 1e78 38bf
000003c0: 6bb2 19bf 67d5 4ebf cb82 c23d 1f1f fdbe
000003d0: 0581 233f 3866 6abd bdc5 6e3e 93d1 7ebd
000003e0: 3de9 0d3b 5b94 e63e 64ec dd3e 2f31 2bbe
000003f0: bb6c d3be b92e 193e a956 563f 6e43 b63d

fc1.weight f4 [200, 16]
-0.026778987 0.04996509 -0.11693559 0.15972492 0.0033416369 -0.1018902 -0.023350615 0.0545196
0.027094457 -0.16104887 -0.06308044 0.115405984 0.04508443 -0.024541894 0.036169745 -0.08599891
-0.20657006 0.013855326 -0.12785535 0.07950871 0.055696096 0.11961298 -0.023349866 -0.07198002
0.061483428 0.12779307 0.052646503 4.271858e-05 -0.02036365 -0.035573803 -0.10629444 0.08239911
-0.128471 0.118436284 -0.13070785 0.1609312 0.012465931 0.06525872 -0.0162858 -0.046747413
0.16180915 0.18686023 -0.06450071 -0.07603077 -0.057724904 0.05933863 -0.08234346 -0.13206601
0.009383041 0.10000834 -0.060473785 0.397085 0.1356366 0.03613411 -0.22987138 -0.0031947428
0.18650414 -0.21564345 -0.18259242 0.20415603 -0.04046267 -0.12859568 -0.0975608 -0.39627132
0.28262424 -0.033877112 0.11678202 -0.0066069663 0.06227888 0.025586698 -0.085994 0.033703066
-0.19414204 -0.02501723 0.02586739 0.12102366 -0.061570942 0.15987924 -0.088553384 0.25948384
0.15251808 -0.00013320491 -0.00071295083 0.1502775 0.041358657 -0.014102636 -0.052463885 0.2640481
-0.16650248 -0.34096175 -0.11213472 -0.106497824 0.07754148 -0.31700057 -0.112159595 0.22215822
-0.05649455 -0.061733957 0.0002477131 -0.0010288394 0.051361073 0.03294311 -0.095897965 0.1022983
-0.103993125 -0.11039608 0.10406849 -0.11487502 0.038467225 0.019361947 0.064939335 0.10628532
-0.015042696 0.04367262 0.05943586 -0.03783848 0.056332856 -0.040615503 -0.10083972 -0.121736266
-0.053968843 0.028921764 0.09408553 -0.11791258 0.0001456477 -0.06960133 0.100343116 0.120591976
0.0026957104 -0.019535998 -0.08678623 0.0010442552 0.05919246 -0.035585247 0.03949219 0.19284867
-0.02018856 -0.20375493 -0.20192629 0.13050188 -0.026001984 -0.06461429 -0.16051733 -0.069052055
0.032696676 0.08714813 -0.104641296 0.233428 0.13988428 -0.12902355 -0.19164371 -0.011885394
0.08603712 -0.085545205 0.13553426 0.20221332 0.118997134 0.04896479 -0.071296975 -0.15511802
0.13012527 0.04610004 0.018476687 -0.051308386 -0.08857225 -0.06717596 -0.072187826 -0.018881243
-0.1402308 -0.10526973 0.011807806 -0.14451714 -0.044272963 -0.068313695 0.01419174 0.36850893
-0.11609979 0.103622064 0.079525895 0.034866717 0.02390475 0.06850152 -0.17405914 -0.27703768
0.11348054 0.2324799 0.17640422 -0.01589215 0.1912554 0.023302801 -0.025729798 0.16136275
-0.13147384 0.10730357 -0.12022172 0.1907663 0.034659177 -0.012229606 -0.21088414 -0.21111402
0.121789485 -0.06092282 0.15325557 0.05430152 0.16083856 -0.22656918 -0.019792981 0.24158727
0.2383397 -0.10063315 0.14447924 -0.1366116 0.023829626 0.04315572 -0.013694992 0.19194743
-0.0376133 0.01463066 -0.13864626 0.09306665 -0.120679505 -0.053547826 -0.028658893 0.18181786
-0.20994963 -0.0026546512 -0.18395583 0.06521737 0.050563138 -0.07647848 0.09303688 -0.022328457
0.10390406 0.0060289176 -0.13603906 -0.033613846 7.4272007e-06 0.051009007 0.07330053 -0.16588187
-0.046843607 -0.042048685 0.10778809 -0.041657656 0.0075090174 0.07717833 -0.094475046 0.094286874
-0.005283006 -0.04117374 0.04344497 -0.014485644 -0.018875903 -0.06426686 0.024492487 0.0010899797
00000000: 9b5f dbbc 32a8 4c3d ed7b efbd ee8e 233e
00000010: 5dff 5a3b cfab d0bd ca49 bfbc f24f 5f3d
00000020: 32f5 dd3c ffe9 24be 5130 81bd f959 ec3d
00000030: 74aa 383d 150c c9bc ba26 143d 3220 b0bd
00000040: 1a87 53be 7301 633c 83ec 02be 76d5 a23d
00000050: 9721 643d a6f7 f43d 3848 bfbc 436a 93bd
00000060: 0cd6 7b3d 30dc 023e dca3 573d ba2c 3338
00000070: abd1 a6bc d6b5 11bd e6b0 d9bd ddc0 a83d
00000080: e78d 03be b98e f23d 47d8 05be 26cb 243e
00000090: e73d 4c3c 5da6 853d cc69 85bc 377a 3fbd
000000a0: 4cb1 253e 4a58 3f3e f318 84bd 05b6 9bbd
000000b0: f370 6cbd 100d 733d b0a3 a8bd 503c 07be
000000c0: 54bb 193c 2cd1 cc3d 5cb3 77bd ba4e cb3e
000000d0: 52e4 0a3e 5c01 143d 6763 6bbe e45e 51bb
000000e0: f1fa 3e3e a3d1 5cbe 82f9 3abe 470e 513e
000000f0: 2fbc 25bd 96ae 03be f5cd c7bd 13e4 cabe
00000100: 20b4 903e bac2 0abd 692b ef3d 407f d8bb
00000110: 2418 7f3d 329b d13c 9f1d b0bd 3a0c 0a3d
00000120: 2ccd 46be eff0 ccbc d9e7 d33c 41db f73d
00000130: d031 7cbd 62b7 233e 7a5b b5bd 11db 843e
00000140: b32d 1c3e ecac 0bb9 52e5 3aba 58e2 193e
00000150: b267 293d be0e 67bc 5fe4 56bd 5031 873e
00000160: a07f 2abe 8a92 aebe e3a6 e5bd 881b dabd
00000170: 11ce 9e3d e64d a2be eeb3 e5bd 727d 633e
00000180: d466 67bd bfdc 7cbd 7ddf 8139 1fda 86ba
00000190: fd5f 523d 5bef 063d 2766 c4bd c581 d13d
000001a0: 59fa d4bd 5717 e2bd dc21 d53d 9843 ebbd
000001b0: cf8f 1d3d f29c 9e3c eafe 843d 1eac d93d
000001c0: a475 76bc 10e2 323d 0473 733d 86fc 1abd
000001d0: 48bd 663d 715c 26bd 0e85 cebd dd50 f9bd
000001e0: 6f0e 5dbd 56ed ec3c eaaf c03d 277c f1bd
000001f0: 02b9 1839 248b 8ebd b180 cd3d edf8 f63d
00000200: 84aa 303b f509 a0bc fbbc b1bd 64df 883a
00000210: cb73 723d d6c1 11bd 90c2 213d 1f7a 453e
00000220: 7b62 a5bc 22a5 50be c4c5 4ebe 49a2 053e
00000230: 1d02 d5bc 7f54 84bd a85e 24be 2a6b 8dbd
00000240: f3ec 053d b87a b23d 2d4e d6bd c007 6f3e
00000250: d33d 0f3e c01e 04be 403e 44be f5ba 42bc
00000260: 3b34 b03d 5332 afbd 7ec9 0a3e 0211 4f3e
00000270: c5b4 f33d 4e8f 483d 2604 92bd 42d7 1ebe
00000280: 8f3f 053e 65d3 3c3d 6c5c 973c be28 52bd
00000290: 5e65 b5bd 8d93 89bd 36d7 93bd d6ac 9abc
000002a0: aa98 0fbe a897 d7bd 8775 413c 4dfc 13be
000002b0: 9157 35bd 0de8 8bbd 7984 683c 34ad bc3e
000002c0: bac5 edbd ce37 d43d 79de a23d 67d0 0e3d
000002d0: e5d3 c33c 864a 8c3d 8f3c 32be e2d7 8dbe
000002e0: 7c68 e83d 360f 6e3e 4fa3 343e 4130 82bc
000002f0: 75d8 433e 84e5 be3c 4cc7 d2bc 473c 253e
00000300: 14a1 06be f9c1 db3d ce36 f6bd 3e58 433e
00000310: c8f6 0d3d af5e 48bc 03f2 57be 462e 58be
00000320: c46c f93d 358a 79bd 07ef 1c3e 456b 5e3d
00000330: ddb2 243e c001 68be e424 a2bc a762 773e
00000340: 530f 743e c118 cebd 5ef2 133e e9e3 0bbe
00000350: 5936 c33c 0dc4 303d f660 60bc de8d 443e
00000360: 6710 1abd 70b5 6f3c 49f9 0dbe ba99 be3d
00000370: d126 f7bd f754 5bbd 0ec6 eabc 762e 3a3e
00000380: 09fd 56be a8f9 2dbb eb5e 3cbe af90 853d
00000390: 4b1b 4f3d c0a0 9cbd 1f8a be3d 2bea b6bc
000003a0: a7cb d43d 3a8e c53b d34d 0bbe acae 09bd
000003b0: 2b37 f936 d2ee 503d 971e 963d f0dc 29be
000003c0: 15df 3fbd 3e3b 2cbd 01c0 dc3d 38a1 2abd
000003d0: 340e f63b ac0f 9e3d 227c c1bd 7a19 c13d
000003e0: 111d adbb cca5 28bd 5af3 313d 3255 6dbc
000003f0: a3a1 9abc 589e 83bd 78a4 c83c a6dd 8e3a

fc1.bias f4 [200]
-0.00534904 0.15669525 0.22438478 0.13851213 0.18623097 0.3112634 -0.030700523 0.090397984
0.15214336 0.1581302 0.2179931 0.19771168 0.24698944 0.121678695 0.15007164 -0.033531364
0.22900644 -0.06979214 -0.08741712 0.12367049 0.32066217 0.10482899 0.15156865 0.20292115
0.14289741 0.04454738 0.20817956 0.124967635 -0.072814934 0.15937965 0.016471805 0.22102512
0.2506558 0.15681192 -0.0708965 0.25451988 0.24198544 0.040487256 0.27838424 0.28063247
0.15353945 0.34226665 0.31368864 0.17377304 0.18039933 -0.1117204 -0.10352855 0.0529142
0.24394177 0.16594875 -0.036119074 0.0664309 0.13894877 -0.02308219 0.34061602 0.08095597
0.053482823 -0.08549326 -0.0055705686 0.019182183 -0.07996044 0.20199455 0.12530585 0.37726316
0.18614006 0.24058914 0.19661474 0.19119285 0.24007234 -0.09872372 -0.07195824 0.30105695
-0.04050375 0.1881547 0.07806395 0.3151905 0.21148379 -0.05341174 0.3455435 0.13706444
0.23429072 0.32689947 0.14905755 0.005753055 0.2818769 -0.054283854 0.16008978 0.15793805
0.3539741 0.24252164 0.26693618 -0.009329533 0.0012633494 0.0044827894 0.18487623 -0.00053635077
0.03609779 -0.052383743 0.2232358 0.22808766 0.19473103 0.13208404 0.25643685 -0.025788741
0.22423556 0.13976566 0.29483253 0.11788011 0.17201532 -0.093545906 0.11461766 0.064894825
-0.09548161 0.2606304 -0.062508136 0.18541859 0.26857072 0.1018937 0.16698545 -0.010967896
0.30855104 0.20233984 -0.028122671 -0.057021793 -0.026743589 -0.07166852 0.21195832 0.2560567
-0.09546683 -0.014915703 0.23109658 -0.06809189 -0.12051557 0.08179913 -0.05263511 0.2049565
-0.08177772 0.073222816 0.0070648203 0.19524872 0.17240188 -0.032846276 -0.09738422 0.10690865
0.2145123 0.20437759 -0.091258034 0.19134454 0.2301654 0.23637784 0.058756694 0.1893598
-0.034596547 -0.09665646 0.16253759 0.04293519 0.025560768 0.10820286 0.21526217 0.22457746
0.35321733 -0.09611757 0.047233734 0.21900819 -0.09933746 0.2671137 0.05999178 0.16167717
0.09054669 0.23600754 -0.090089895 0.22433703 0.11872887 -0.06707576 0.026084004 0.07532627
-0.033391736 -0.09693181 0.19833486 0.22137552 0.21308011 0.085629694 0.26049185 0.12957966
0.15458865 0.10578414 -0.040126577 -0.038288455 -0.08142796 -0.060235027 0.17774214 0.37314916
0.064164795 0.21258618 -0.007900411 0.21469359 -0.08961101 0.22068919 0.1183314 0.34119096
00000000: 0047 afbb b874 203e 20c5 653e 20d6 0d3e
00000010: 55b3 3e3e eb5d 9f3e aa7f fbbc 9422 b93d
00000020: 78cb 1b3e e2ec 213e 9539 5f3e ee74 4a3e
00000030: cdea 7c3e ae32 f93d 61ac 193e 2f58 09bd
00000040: aa80 6a3e 2eef 8ebd bf07 b3bd f446 fd3d
00000050: d52d a43e 95b0 d63d d034 1b3e 90ca 4f3e
00000060: b353 123e 5077 363d 062d 553e 08ef ff3d
00000070: ff1f 95bd 6b34 233e e1ef 863c 6954 623e
00000080: f555 803e 4e93 203e 2f32 91bd 6e50 823e
00000090: 08cb 773e f7d5 253d 6188 8e3e 0faf 8f3e
000000a0: 7239 1d3e 933d af3e cc9b a03e 8ff1 313e
000000b0: 9aba 383e aacd e4bd c706 d4bd 8fbc 583d
000000c0: dfcb 793e 78ee 293e 98f1 13bd ec0c 883d
000000d0: 9648 0e3e dc16 bdbc 3965 ae3e 3ecc a53d
000000e0: ce10 5b3d 1717 afbd 5189 b6bb f423 9d3c
000000f0: 4dc2 a3bd a9d7 4e3e 2d50 003e a328 c13e
00000100: 809b 3e3e 005d 763e 6055 493e 0fc8 433e
00000110: 86d5 753e a92f cabd d75e 93bd 2324 9a3e
00000120: 43e7 25bd a0ab 403e fedf 9f3d a660 a13e
00000130: 358f 583e 45c6 5abd 14eb b03e 9f5a 0c3e
00000140: e8e9 6f3e 5e5f a73e 8ba2 183e 2084 bc3b
00000150: 2b52 903e bf58 5ebd 93ee 233e 83ba 213e
00000160: 183c b53e 9857 783e dcab 883e e6da 18bc
00000170: f996 a53a 5de4 923b 3250 3d3e e499 0cba
00000180: 47db 133d 5690 56bd ed97 643e d08f 693e
00000190: 9267 473e 0a41 073e b14b 833e e942 d3bc
000001a0: 029e 653e bb1e 0f3e 4af4 963e 216b f13d
000001b0: c924 303e ff94 bfbd aabc ea3d 94e7 843d
000001c0: dd8b c3bd 5971 853e 4404 80bd 5fde 3d3e
000001d0: 1a82 893e a5ad d03d 3cfe 2a3e b1b2 33bc
000001e0: 67fa 9d3e 2d32 4f3e 8461 e6bc af8f 69bd
000001f0: 5f15 dbbc f2c6 92bd 9a0b 593e dd19 833e
00000200: 1d84 c3bd fe60 74bc 95a4 6c3e c373 8bbd
00000210: ded0 f6bd 4d86 a73d ea97 57bd 1ee0 513e
00000220: 147b a7bd d8f5 953d 0280 e73b 48ef 473e
00000230: 1e8a 303e d189 06bd 6171 c7bd ecf2 da3d
00000240: 1da9 5b3e 5c48 513e 7ee5 babd d3ef 433e
00000250: 7bb0 6b3e 080d 723e dcaa 703d 89e7 413e
00000260: 1cb5 0dbd d2f3 c5bd 4170 263e cfdc 2f3d
00000270: d164 d13c 7699 dd3d b06d 5c3e a2f7 653e
00000280: e7d8 b43e 4ad9 c4bd 2978 413d af43 603e
00000290: 7071 cbbd 20c3 883e f1b9 753d b38e 253e
000002a0: 8b70 b93d f6ab 713e 0d81 b8bd 9bb8 653e
000002b0: 1f28 f33d 045f 89bd 1fae d53c a944 9a3d
000002c0: c6c5 08bd 2f84 c6bd 4b18 4b3e 44b0 623e
000002d0: ac31 5a3e 9f5e af3d 305f 853e 88b0 043e
000002e0: 7d4c 1e3e 5ba5 d83d c45b 24bd 5bd4 1cbd
000002f0: b4c3 a6bd 01b9 76bd 0902 363e 680d bf3e
00000300: d568 833d 31b0 593e ba70 01bc a3d8 5b3e
00000310: fa85 b7bd 59fc 613e bc57 f23d 95b0 ae3e

fc2.weight f4 [5, 200]
-0.054212343 0.004844613 0.06507186 -0.031472493 0.18350263 -0.303865 0.0019133484 0.01973266
-0.21431097 0.20914662 -0.051540278 0.31752694 0.077408105 -0.021827657 -0.114286974 0.011019684
-0.17180353 0.010483821 0.025611607 -0.29885805 0.20431377 0.3360222 -0.18369092 -0.014510002
0.2880711 -0.059185173 0.35904238 0.053238925 0.020478228 0.13160758 0.043682083 -0.06579536
-0.21123989 -0.19471967 -0.032691356 -0.2432545 0.43184406 0.08889439 -0.25660682 0.03597963
0.009244133 0.23950478 0.32546324 -0.27851248 -0.3509894 -0.020953909 0.023347959 0.26045984
0.035624847 0.10920027 0.06290429 -0.077346735 -0.11327448 0.072466545 -0.3721856 0.010015648
-0.08716985 0.0131427245 0.008021782 0.066429816 -0.018650064 -0.21790883 -0.39593306 0.027614886
0.04778114 -0.3626829 -0.3215346 0.104773775 0.19761457 -0.028339893 -0.005723906 0.014859067
0.011201319 0.16907792 0.031048333 -0.24005906 0.06934756 0.019374037 0.1574511 0.36272612
0.05556818 -0.5361615 0.21610884 0.009408246 0.23292203 -0.018097425 -0.21030912 0.4018838
0.5530884 0.023369268 0.33931345 -0.024050081 -0.030340724 0.04299105 -0.07374193 0.007872769
0.043584485 -0.0011659921 -0.23498608 -0.26563838 -0.19710852 -0.061441455 0.4795293 0.0072432533
-0.3306948 -0.056214713 -0.44635683 -0.20920658 -0.25501624 -0.009139079 0.21862034 0.03435414
-0.0258413 0.25630426 0.010332785 0.23663093 0.06540395 -0.16831169 0.1967936 0.0032763428
-0.3730753 0.24526145 0.052973326 -0.016270595 -0.001375352 -0.0124743525 -0.3186091 -0.22109817
-0.011010695 -0.0065465914 -0.36747697 0.0207594 -0.031756796 -0.08436577 -0.0137020415 0.64261913
-0.0031179234 0.19704022 0.021711722 0.14052065 -0.20738225 0.009801097 0.010640616 -0.1651446
-0.32868528 -0.41506794 0.00765627 0.35254857 -0.30491015 -0.42924055 -0.036218278 0.1124565
0.036764864 0.018104706 -0.2226861 0.22693963 -0.05434391 -0.08671892 0.1885275 -0.1959145
-0.3271135 0.005467691 0.05242049 0.30290857 0.030278167 -0.16157404 0.26400536 0.088734925
-0.07327814 0.14983763 -0.0146262515 -0.24350451 -0.023337275 0.00040149363 -0.04121761 0.19400802
0.013674759 -0.011519809 -0.16889127 0.20878153 0.1967958 -0.13606162 0.49277002 0.1205002
-0.0805903 0.04899517 -0.017633662 0.022946412 0.010782131 0.012167909 0.06944749 0.3987977
0.17487195 -0.2781478 0.0038116665 0.044989437 -0.005599571 -0.19320232 0.32388657 0.5519113
-0.01686979 -0.0009578136 0.19372249 -0.0017668598 -0.26035583 -0.4074191 0.020472981 -0.075175524
-0.01863289 -0.14509074 -0.27325222 -0.16222145 -0.3986706 -0.039460115 0.250652 -0.027726298
0.48681223 -0.022868732 -0.009963499 0.56639713 -0.46979678 0.14506623 0.02817362 -0.020935385
-0.23932087 0.051478203 0.15202971 -0.21080512 0.0010496764 -0.1437261 0.019888574 -0.3647781
0.41725552 0.30547422 -0.036693305 -0.23228556 -0.088648304 0.0356849 -0.30820766 0.14151365
-0.21981396 -0.39407563 0.62245077 0.32339394 0.27769837 0.00045443865 0.009616871 -0.04995701
0.38596323 -0.059162717 -0.045775652 -0.08355988 -0.13265131 0.017405132 0.07326982 -0.00036381165
00000000: c30d 5ebd 8fbf 9e3b 6544 853d 4de9 00bd
00000010: 1de8 3b3e 3194 9bbe 52c9 fa3a 63a6 a13c
00000020: 5674 5bbe 882a 563e e61b 53bd e492 a23e
00000030: 2488 9e3d eacf b2bc 4a0f eabd e88b 343c
00000040: 44ed 2fbe 55c4 2b3c 6fcf d13c ec03 99be
00000050: a137 513e 1a0b ac3e 7919 3cbe 5cbb 6dbc
00000060: 0e7e 933e 276c 72bd 67d4 b73e 0f11 5a3d
00000070: f5c1 a73c 23c4 063e fceb 323d b8bf 86bd
00000080: 454f 58be 9864 47be 5fe7 05bd b517 79be
00000090: aa1a dd3e 430e b63d f861 83be 605f 133d
000000a0: b474 173c be40 753e 1ea3 a63e 3099 8ebe
000000b0: e2b4 b3be 88a7 abbc 3844 bf3c fe5a 853e
000000c0: 5ceb 113d 64a4 df3d f7d3 803d f767 9ebd
000000d0: 73fc e7bd 5769 943d 1c8f bebe ac18 243c
000000e0: 1b86 b2bd 9554 573c cb6d 033c 5b0c 883d
000000f0: 05c8 98bc 7e23 5fbe bdb7 cabe 9d38 e23c
00000100: 28b6 433d 93b1 b9be 2fa0 a4be a293 d63d
00000110: 795b 4a3e 1029 e8bc 9b8f bbbb 7273 733c
00000120: bd85 373c c322 2d3e 1359 fe3c 0bd2 75be
00000130: 1806 8e3d 4db6 9e3c dc3a 213e 3db7 b93e
00000140: 769b 633d e141 09bf a34b 5d3e 0b25 1a3c
00000150: 1d83 6e3e 0d41 94bc 465b 57be b7c3 cd3e
00000160: 3497 0d3f e870 bf3c 7eba ad3e ad04 c5bc
00000170: 1c8d f8bc 6217 303d 0206 97bd c9fc 003c
00000180: a585 323d 34d4 98ba 31a0 70be c101 88be
00000190: d1d6 49be 09aa 7bbd dd84 f53e d058 ed3b
000001a0: d450 a9be 6641 66bd e288 e4be 403a 56be
000001b0: 7d91 82be 13bc 15bc 03de 5f3e edb6 0c3d
000001c0: 22b1 d3bc 503a 833e d74a 293c 614f 723e
000001d0: 82f2 853d e659 2cbe 4384 493e e9b7 563b
000001e0: ba03 bfbe d125 7b3e 8ffa 583d e949 85bc
000001f0: 2845 b4ba 3a61 4cbc bb20 a3be 8f67 62be
00000200: 3466 34bc ca84 d6bb f125 bcbe 9e0f aa3c
00000210: 6a13 02bd f6c7 acbd 877e 60bc b082 243f
00000220: 1356 4cbb e9c4 493e c8dc b13c a5e4 0f3e
00000230: 035c 54be c894 203c fa55 2e3c ab1b 29be
00000240: 7049 a8be c983 d4be 73e1 fa3b 3f81 b43e
00000250: 2f1d 9cbe 6bc5 dbbe 9e59 14bd 984f e63d
00000260: c196 163d 5250 943c d307 64be dd62 683e
00000270: b897 5ebd b099 b1bd 5a0d 413e d09d 48be
00000280: 6c7b a7be 512a b33b deb6 563d d516 9b3e
00000290: eb09 f83c aa73 25be b62b 873e a8ba b53d
000002a0: d912 96bd 096f 193e f2a2 6fbc 3f59 79be
000002b0: d02d bfbc 907f d239 ccd3 28bd 0aaa 463e
000002c0: 190c 603c 95bd 3cbc d5f1 2cbe d3ca 553e
000002d0: d784 493e bd53 0bbe 5a4c fc3e cfc8 f63d
000002e0: 870c a5bd 29af 483d 7874 90bc 1dfa bb3c
000002f0: 89a7 303c e95b 473c 7c3a 8e3d 362f cc3e
00000300: a211 333e 6369 8ebe 27cd 793b d846 383d
00000310: 9b7c b7bb d4d6 45be 76d4 a53e 0f4a 0d3f
00000320: 8432 8abc c815 7bba 305f 463e fa95 e7ba
00000330: 5c4d 85be 3c99 d0be f4b6 a73c a0f5 99bd
00000340: 01a4 98bc ab92 14be b7e7 8bbe 611d 26be
00000350: 8e1e ccbe eea0 21bd 7555 803e 4322 e3bc
00000360: 743f f93e 3557 bbbc f23d 23bc 67ff 103f
00000370: 3489 f0be 3e8c 143e 5dcc e63c af80 abbc
00000380: 8810 75be cfda 523d adad 1b3e 4cdd 57be
00000390: 4c95 893a ef2c 13be 5ded a23c 32c4 babe
000003a0: 84a2 d53e 1e67 9c3e b84b 16bd 44dc 6dbe
000003b0: 3e8d b5bd 542a 123d 65cd 9dbe f4e8 103e
000003c0: e916 61be 48c4 c9be ef58 1f3f e493 a53e
000003d0: 7b2e 8e3e b941 ee39 1590 1d3c b99f 4cbd
000003e0: f99c c53e 9b54 72bd 407f 3bbd 7121 abbd
000003f0: bfd5 07be 3595 8e3c 7d0e 963d f9bd beb9

fc2.bias f4 [5]
0.04400971 -0.021604106 -0.07126564 -0.05843095 0.10296619
00000000: 8743 343d 18fb b0bc b8f3 91bd 4b55 6fbd
00000010: f0df d23d
