Assignment/A2/a2_files/model.pt (torch, 270171 bytes, 5 tensors)

embedding.weight f4 [3165, 16]
0.0 0.0 0.0 0.0 0.0 0.0 0.0 0.0
0.0 0.0 0.0 0.0 0.0 0.0 0.0 0.0
0.0157866 -0.044120368 0.03724153 0.15085973 0.033759307 -0.26800087 0.02189637 0.0113675175
0.006626606 -0.07103639 -0.02472537 0.0025786192 -0.0668284 0.0053828806 0.051428154 -0.42225987
0.0028687415 0.010173029 -0.021699749 -0.013549681 -0.0029085774 0.09452886 0.010124178 -0.018626783
-0.0056153084 -0.05176041 -0.013210611 0.006835429 -0.003154935 0.00573757 0.0010851775 0.120006256
0.0071145142 0.0234726 0.012157493 0.05273532 -0.0045470544 -0.13370341 -0.004516958 0.013811361
0.039882664 0.186079 -0.0016533497 0.0082509145 0.0029797037 0.001975751 0.033474516 -0.12099308
-0.026131544 0.0045262114 -0.077808455 -0.11542195 -0.019534204 0.061010893 0.018367302 -0.050512332
-0.0495476 -0.1751092 0.0044207633 -0.0102318125 0.018274136 0.00024452806 -0.032089315 0.0309001
0.04263966 0.039064474 0.07457989 -0.024693735 -0.0066412813 0.09762256 -0.022886861 0.06805833
0.060616028 0.1427933 -0.002660287 0.012245435 0.034529887 0.0040719775 -0.018263057 -0.42459226
-0.022282906 -0.033772722 -0.010439505 -0.053760163 0.020935778 0.055672478 -0.028962156 -0.023196287
-0.021809058 -0.0073525333 0.011020732 -0.0020964623 -0.0032050924 -0.008211798 0.033067156 0.10556233
0.011922605 0.021268997 0.0055203503 -0.0629671 -0.0019389667 -0.09163465 0.011792684 0.002124973
0.02306844 -0.11758553 0.00081009715 0.0010263689 0.012601157 0.0017557836 0.0066420333 -0.14221016
-0.0645096 -0.04154298 -0.060136132 -0.113047704 -0.023974925 0.08959973 0.031143993 -0.038214006
-0.065301895 0.0361837 -0.0085375225 -0.0042582406 -0.051901944 -0.00029113665 0.014508657 0.09198846
-0.0060684425 0.01744846 -0.014655758 -0.17348512 0.007920755 -0.009652769 -0.0055462453 -0.026677135
0.0074219736 0.10442308 0.011438388 -0.0016818721 0.022178814 -0.0012088283 0.01907016 -0.09445188
-0.036163073 -0.028056104 -0.01037787 -0.04203667 -0.022611 -0.100406036 0.03928831 0.00411917
-0.031355467 -0.065444745 -0.020884007 -0.00066011114 -0.05995902 0.0038650203 0.0012373393 -0.13804099
-0.0030143205 -0.026364634 0.030367546 -0.09036411 -0.001222387 -0.13857193 0.01950576 0.022196466
-0.007173627 -0.119424276 -0.023013849 0.0018929779 -0.053958397 0.003991033 0.015350426 -0.034034286
0.020997163 0.017799506 -0.0015811591 0.15477666 -0.017057301 0.2677399 0.026178224 0.00888061
0.011517184 0.070610024 -0.01758238 -0.0035182198 -0.0071977642 0.0070493612 -0.026768299 0.19341125
0.0034136132 0.0025264302 0.017282177 -0.05881572 0.021293173 0.040451054 -0.012899758 0.0020972004
0.02231853 -0.044767145 0.019957868 0.0042902133 0.02288875 -0.0054690666 0.027674047 0.015130586
0.011759431 0.05585201 -0.04097852 -0.016495 -0.014245457 0.073310845 -0.031856555 -0.018919528
0.016921666 0.16967842 0.030943837 -0.0049401424 0.104525775 -0.0027086064 -0.03730299 -0.263653
0.009338845 0.028016653 -0.0024414982 -0.059465297 -0.01703822 0.08379438 -0.019125493 -0.0034091994
0.03495433 0.13892385 0.0064103827 2.59109e-05 0.05402492 -0.0003205966 -0.01811323 -0.12983976
00000000: 0000 0000 0000 0000 0000 0000 0000 0000
00000010: 0000 0000 0000 0000 0000 0000 0000 0000
00000020: 0000 0000 0000 0000 0000 0000 0000 0000
00000030: 0000 0000 0000 0000 0000 0000 0000 0000
00000040: e652 813c 8fb7 34bd 938a 183d f97a 1a3e
00000050: 3347 0a3d 6937 89be 0460 b33c d33e 3a3c
00000060: 0024 d93b 877b 91bd dc8c cabc 0dfe 283b
00000070: 54dd 88bd e062 b03b 54a6 523d 7232 d8be
00000080: 7f01 3c3b c7ac 263c acc3 b1bc 7bff 5dbc
00000090: d59d 3ebb 5998 c13d e1df 253c 3297 98bc
000000a0: 9f00 b8bb b902 54bd 5271 58bc bcfb df3b
000000b0: 07c3 4ebb 3a02 bc3b 843c 8e3a d7c5 f53d
000000c0: df20 e93b 9c49 c03c 3930 473c fe00 583d
000000d0: 75ff 94bb 8ce9 08be fd02 94bb 0c49 623c
000000e0: 015c 233d 7e8b 3e3e 36b5 d8ba d82e 073c
000000f0: 2247 433b 9a7b 013b 931c 093d 38cb f7bd
00000100: d211 d6bc 9d50 943b 0a5a 9fbd 5862 ecbd
00000110: 3206 a0bc 8fe6 793d 0677 963c 05e6 4ebd
00000120: 6df2 4abd d34f 33be 0ddc 903b 55a3 27bc
00000130: a4b3 953c 0034 8039 1670 03bd 3522 fd3c
00000140: eda6 2e3d 1202 203d 57bd 983d 844a cabc
00000150: 1b9f d9bb 56ee c73d 3a7d bbbc 2a62 8b3d
00000160: 8348 783d 6838 123e 3658 2ebb 14a1 483c
00000170: 366f 0d3d 396e 853b 689c 95bc 2864 d9be
00000180: a48a b6bc 4455 0abd 750a 2bbc 9e33 5cbd
00000190: 8281 ab3c d308 643d 0b42 edbc 2406 bebc
000001a0: e9a8 b2bc 85ed f0bb 4d90 343c cd64 09bb
000001b0: 870c 52bb c78a 06bc 6d71 073d 1031 d83d
000001c0: 0857 433c 523c ae3c 0ee4 b43b e5f4 80bd
000001d0: ed24 feba f3aa bbbd 1a36 413c 2243 0b3b
000001e0: 06fa bc3c afd0 f0bd b35c 543a 3a87 863a
000001f0: 1575 4e3c 5222 e63a 6aa5 d93b 8a9f 11be
00000200: 9c1d 84bd f928 2abd 4e51 76bd 8e85 e7bd
00000210: 1067 c4bc 1080 b73d b021 ff3c 4a86 1cbd
00000220: 00bd 85bd 5c35 143d f7e0 0bbc b688 8bbb
00000230: 2297 54bd b3a3 98b9 b8b5 6d3c 7264 bc3d
00000240: c9d9 c6bb 13f0 8e3c b41e 70bc 15a6 31be
00000250: 0ec6 013c a626 1ebc 47bd b5bb 028a dabc
00000260: 0734 f33b c5db d53d 1468 3b3c 4372 dcba
00000270: 58b0 b53c 8c71 9eba 0639 9c3c fd6f c1bd
00000280: bb1f 14bd ead5 e5bc f107 2abc a52e 2cbd
00000290: b43a b9bc aea1 cdbd c7ec 203d 1afa 863b
000002a0: 976e 00bd e507 86bd f014 abbc 4f0b 2dba
000002b0: 9797 75bd 484c 7d3b 382e a23a 9e5a 0dbe
000002c0: e88b 45bb a5fa d7bc 5cc5 f83c d210 b9bd
000002d0: 8038 a0ba cde5 0dbe 8bca 9f3c 5dd5 b53c
000002e0: bf10 ebbb b794 f4bd 8a87 bcbc cc1d f83a
000002f0: 7b03 5dbd 36c7 823b 5a80 7b3c 8967 0bbd
00000300: 3e02 ac3c 45d0 913c e53e cfba c67d 1e3e
00000310: c1bb 8bbc 3415 893e b773 d63c fa7f 113c
00000320: 92b2 3c3c fd9b 903d ec08 90bc ef91 66bb
00000330: 39db ebbb 54fe e63b 3149 dbbc 990d 463e
00000340: edb6 5f3b 7792 253b 5a93 8d3c c1e8 70bd
00000350: 056f ae3c 01b0 253d 8259 53bc 2f71 093b
00000360: 5ad5 b63c c15d 37bd af7e a33c eb94 8c3b
00000370: 3081 bb3c db35 b3bb afb4 e23c 47e6 773c
00000380: a1aa 403c 14c5 643d 18d9 27bd 8620 87bc
00000390: c765 69bc ff23 963d 057c 02bd 20fd 9abc
000003a0: 4e9f 8a3c 2ec0 2d3e ee7d fd3c ebe0 a1bb
000003b0: 9c11 d63d e082 31bb 05cb 18bd 87fd 86be
000003c0: f401 193c 2e83 e53c 8b01 20bb e291 73bd
000003d0: bd93 8bbc 639c ab3d 11ad 9cbc e06c 5fbb
000003e0: 462c 0f3d 0e42 0e3e 300e d23b 3c5b d937
000003f0: 3c49 5d3d bf15 a8b9 3262 94bc b7f4 04be

fc1.weight f4 [200, 16]
-0.008656848 -0.03683362 0.024430951 0.21906927 -0.0057447883 -0.056102794 -0.0036159216 0.02569413
-0.016119538 -0.13668826 -0.01735227 0.0047855685 -0.047781136 0.001770302 0.011740114 -0.43090096
0.04485057 0.026871338 0.049744748 0.28410563 0.01565881 0.24005598 0.0069011925 0.024185773
0.06777012 -0.043763276 0.00013223362 0.008519814 0.005147776 0.0025976794 0.019634089 0.32557598
-0.024217643 -0.037665747 -0.04177344 0.049043357 0.0091780955 -0.24845895 -0.00895348 -0.041403253
-0.059100147 0.042164315 0.0059656547 -0.009125325 -0.002963394 -0.004196592 -0.003548058 0.1000868
0.0020770868 -0.014981925 -0.019870581 0.36930585 0.00025145212 0.31801555 0.043287523 -0.02264302
0.0048418497 -0.09414403 -0.020559093 0.0016174774 -0.037345175 0.005471796 0.0047243824 0.20740114
0.001714775 -0.020663952 0.039149474 0.1502705 -0.006352077 0.18431224 0.025279641 0.033030674
0.009420766 -0.011440294 -0.025234502 0.00586184 -0.0545367 0.005831975 0.017605513 0.16646077
0.003748501 0.0018331165 0.0044339183 0.24740817 -0.0037900014 0.22459011 0.02560781 0.0001567153
0.018837353 -0.0074213897 -0.0153665645 0.001994356 -0.016440924 0.0050631757 0.005089998 0.2741498
-0.04055294 -0.0963403 -0.027527938 0.042377125 0.012226135 -0.4066912 -0.006368127 -0.015448329
-0.08636758 0.080542706 -0.0074839713 -0.014347634 -0.06452509 -0.005132005 -0.00050488353 0.16787097
0.012368132 0.015160217 0.00018878518 -0.2491169 0.033237956 0.02305333 -0.012368128 -0.023805609
0.0348916 -0.21942103 0.023513671 0.0015136447 0.034953393 -0.0055483496 0.029997619 0.059400897
-0.03509075 -0.05763292 -0.030298369 0.15929675 -0.0021395322 0.01583227 -0.012051885 -0.015398268
-0.058587223 -0.11707871 -0.0023612673 -0.004592009 -0.04125367 -0.004201611 0.014420031 -0.4512415
0.034222417 0.04088268 0.043702796 0.28620523 0.0031312339 0.24855961 0.0040765055 0.020764276
0.055887803 -0.050194547 -0.0013288204 0.0068438305 0.014396794 0.0032960905 0.0102438405 0.2572889
0.011271098 0.0071261395 -0.023842627 -0.30656946 0.047449395 0.022614768 -0.024484722 -0.0513745
0.027931707 -0.27678847 0.036548346 -0.0023920566 0.053947337 -0.0094991 0.04138183 0.07070082
-0.066509955 -0.12947622 -0.009118971 0.13522765 -0.008130084 -0.5668364 0.014541528 0.006372242
-0.111433305 0.18258554 -0.032195777 -0.004648927 -0.119183406 6.250921e-05 0.020638624 0.15148896
0.003961074 -0.011080832 -0.038422123 0.27896115 0.008426498 0.28076658 -0.004275947 -0.046069622
-0.0098892385 -0.045190964 0.0070141978 -0.006839867 0.0058897287 -0.0030790542 0.00027265388 0.3500547
0.06502685 0.13765146 0.05017292 -0.1727733 -0.036650367 0.09293226 -0.0047049043 0.054484904
0.109474175 0.33885399 0.005442103 0.010151543 0.10362928 0.007417832 -0.061842095 -0.106266245
-0.038233653 -0.07255249 -0.09752199 0.14033589 0.034735095 -0.42216054 -0.03199808 -0.10402524
-0.103559665 0.04611609 0.030521894 -0.021442855 0.014998244 -0.013333482 0.0069819833 0.23141265
-0.04391663 -0.061227642 -0.10037916 0.14393614 0.01246576 -0.42348453 -0.003868975 -0.094440095
-0.11523944 0.04785163 0.018637264 -0.028405037 0.0058539603 -0.009401498 -0.015407297 0.20941514
00000000: 74d5 0dbc dade 16bd 6b23 c83c b253 603e
00000010: c73e bcbb 0bcc 65bd 19f9 6cbb 7f7c d23c
00000020: 1f0d 84bc 02f8 0bbe 5926 8ebc 42d0 9c3b
00000030: 27b6 43bd 7a09 e83a 9b59 403c 0d9f dcbe
00000040: 3bb5 373d 4821 dc3c 26c1 4b3d 4b76 913e
00000050: e846 803c 3cd1 753e 6623 e23b 3e21 c63c
00000060: 10cb 8a3d 1f41 33bd 31a8 0a39 b196 0b3c
00000070: adae a83b d43d 2a3b abd7 a03c e5b1 a63e
00000080: 1464 c6bc 6647 1abd a01a 2bbd b0e1 483d
00000090: b95f 163c 066c 7ebe 9eb1 12bc 7596 29bd
000000a0: ff12 72bd 7db4 2c3d 8a7b c33b 6382 15bc
000000b0: 8035 42bb 9183 89bb 8986 68bb 4ffa cc3d
000000c0: bc1f 083b bf76 75bc a1c7 a2bc a815 bd3e
000000d0: 55d5 8339 efd2 a23e 424e 313d db7d b9bc
000000e0: 61a8 9e3b 96ce c0bd 8b6b a8bc 8901 d43a
000000f0: 41f7 18bd c04c b33b fece 9a3b f760 543e
00000100: 4dc2 e03a 7347 a9bc 335b 203d 83e0 193e
00000110: 1525 d0bb 59bc 3c3e 4017 cf3c 2c4b 073d
00000120: 8e59 1a3c 1270 3bbc 96b8 cebc ae14 c03b
00000130: e061 5fbd 271a bf3b 7039 903c b174 2a3e
00000140: 69a9 753b 2f45 f03a 674a 913b 9158 7d3e
00000150: ac61 78bb f3fa 653e 78c7 d13c f153 2439
00000160: cb50 9a3c 212f f3bb 0bc4 7bbc beb3 023b
00000170: 1eaf 86bc ffe8 a53b ffc9 a63b 5d5d 8c3e
00000180: d71a 26bd 104e c5bd 4582 e1bc a393 2d3d
00000190: 2050 483c d439 d0be b9ab d0bb fd1a 7dbc
000001a0: 7ce1 b0bd 93f3 a43d 1a3c f5bb 5712 6bbc
000001b0: bb25 84bd 612a a8bb 295a 04ba 5ee6 2b3e
000001c0: b5a3 4a3c 8f62 783c a3f4 4539 8018 7fbe
000001d0: 8624 083d 56da bc3c b0a3 4abc fb03 c3bc
000001e0: 7fea 0e3d e8af 60be be9f c03c 7d65 c63a
000001f0: 4a2b 0f3d eece b5bb 91bd f53c 5b4e 733d
00000200: 51bb 0fbd 7f10 6cbd 4934 f8bc b01e 233e
00000210: 6537 0cbb adb2 813c 4575 45bc 0449 7cbc
00000220: 28f9 6fbd f6c6 efbd 7ebf 1abb 9078 96bb
00000230: 9cf9 28bd abad 89bb fe41 6c3c 2009 e7be
00000240: ce2c 0c3d 9974 273d b401 333d 7e89 923e
00000250: 6335 4d3b 6986 7e3e 3594 853b d819 aa3c
00000260: 9cea 643d cc98 4dbd d02b aeba 3642 e03b
00000270: 88e0 6b3c 3903 583b c8d5 273c 5fbb 833e
00000280: 69aa 383c 6482 e93b 9d51 c3bc acf6 9cbe
00000290: 4c5a 423d 9b42 b93c 2f94 c8bc 116e 52bd
000002a0: 09d1 e43c 38b7 8dbe b8b3 153d 0dc4 1cbb
000002b0: e2f7 5c3d 1da2 1bbc fe7f 293d 97cb 903d
000002c0: 5f36 88bd 6a95 04be bd67 15bc 1e79 0a3e
000002d0: 0b34 05bc 311c 11bf 973f 6e3c 3dce d03b
000002e0: 2537 e4bd b4f7 3a3e b8df 03bd 0756 98bb
000002f0: 6e16 f4bd 6017 8338 5512 a93c ec1f 1b3e
00000300: e6cb 813b 618c 35bc 8460 1dbd ffd3 8e3e
00000310: 4b0f 0a3c a3c0 8f3e 3e1d 8cbb 80b3 3cbd
00000320: 7906 22bc 291a 39bd 5bd7 e53b f720 e0bb
00000330: a0fe c03b f5c9 49bb fcf2 8e39 5f3a b33e
00000340: cc2c 853d 81f4 0c3e 1f82 4d3d 7ceb 30be
00000350: b21e 16bd 4553 be3d 992b 9abb 902b 5f3d
00000360: ff33 e03d 457e ad3e ab53 b23b a852 263c
00000370: 973b d43d 4911 f33b 234e 7dbd 1ea2 d9bd
00000380: e49a 1cbd 6696 94bd 9cb9 c7bd 36b4 0f3e
00000390: 6346 0e3d 6d25 d8be 6b10 03bd 2f0b d5bd
000003a0: 1717 d4bd 3ae4 3c3d 0d09 fa3c eda8 afbc
000003b0: 32bb 753c ad74 5abc 1fc9 e43b 70f7 6c3e
000003c0: ede1 33bd d6c9 7abd 9793 cdbd ff63 133e
000003d0: 303d 4c3c f7d2 d8be a18e 7dbb cf69 c1bd
000003e0: a802 ecbd 1200 443d 2dad 983c aeb1 e8bc
000003f0: 94d2 bf3b be08 1abc e36e 7cbc ec70 563e

fc1.bias f4 [200]
0.069430634 0.085782476 0.07995168 0.17216879 0.041477177 0.037118554 0.1269287 0.025043415
0.072662435 0.04842516 0.017178921 0.12554838 0.08766542 0.07232675 0.11251267 0.088312626
0.06957557 -0.00011042629 -8.9916763e-10 0.03541825 0.0904915 0.060481198 0.040051546 0.092840545
0.00041989525 0.052422505 0.038031932 0.103499785 0.08498476 0.06433672 -1.1729077e-10 0.053589854
0.045219578 0.07779422 0.0055238386 0.015212587 0.11587795 0.07777756 0.033355806 0.08857003
0.006470471 0.10296317 0.103720486 0.06844074 0.04540525 0.00011283718 0.062194206 0.09322847
0.057369318 0.10333709 9.31037e-16 0.07325571 0.06286146 0.031213203 0.16544531 0.16701
0.016421977 0.108361006 0.043175608 -9.502402e-37 0.06649255 0.1056542 -0.016936796 0.066820115
0.04151293 0.05232713 0.046472266 0.04858287 0.16152723 0.075876065 0.0982412 0.09321515
0.039534472 0.021408493 0.061751656 0.1043375 0.053851034 0.074393965 0.05333697 0.024873339
0.04889702 -3.0885242e-06 0.030120715 0.036885224 0.07154711 0.056667455 0.030355379 0.13969225
0.04406589 -6.620115e-31 0.049628917 9.277043e-06 0.018468197 0.049519178 0.016895775 0.044810295
0.014726833 0.033837255 0.1000893 0.051676188 0.07022676 0.100000925 0.12537956 0.09616515
0.059778906 0.12916209 0.01720584 0.02726466 0.0815825 0.11923661 0.022080597 0.073106825
0.091709614 0.041599184 0.043883935 0.058374103 0.1439293 0.07646542 0.058315795 0.044530243
0.051408138 0.02873182 0.00011455634 0.016149903 -0.011184746 0.035680756 0.061213285 0.020095894
0.024573531 0.05321895 0.031444885 0.06662785 2.3015121e-11 0.032943822 -1.7280449e-07 0.017309211
0.022550384 -0.0013991342 0.09368086 0.033783197 0.010083441 0.04443079 0.034748744 0.0893696
0.032586213 0.010353945 0.008511758 0.07544119 0.08954344 0.056456916 0.07794303 0.084954806
-1.0272957e-09 -7.549447e-14 0.00026269132 0.054315895 0.015607063 0.027844751 0.04408891 0.07204522
0.035152983 -0.0134173995 0.050281387 0.049007446 0.04773153 0.1081825 0.0071240873 0.03320304
0.022064347 0.10628728 0.023332579 0.012629431 0.04399665 0.0009934405 0.05083997 5.3379467e-14
0.07832021 0.032190107 0.08615932 0.03445127 0.03281855 0.08322216 0.09434475 0.044134237
0.052163348 0.02601504 0.07065618 0.18630083 -2.737649e-18 -0.0012387135 0.07768724 0.08195374
0.034541883 0.027761636 0.015565773 0.02829616 0.042466044 0.10044754 0.035382144 5.9674016e-07
00000000: a631 8e3d b9ae af3d b5bd a33d 044d 303e
00000010: f9e3 293d a009 183d 99f9 013e d927 cd3c
00000020: 0bd0 943d 7659 463d cfba 8c3c c18f 003e
00000030: ed89 b33d 0c20 943d 0b6d e63d 40dd b43d
00000040: a37d 8e3d aa94 e7b8 4c29 77b0 ba12 113d
00000050: 9c53 b93d 22bb 773d 170d 243d 2f23 be3d
00000060: 6325 dc39 fbb8 563d 5fc7 1b3d b2f7 d33d
00000070: 7d0c ae3d f8c2 833d 6bf6 00af 0981 5b3d
00000080: 2a38 393d 9352 9f3d 5101 b53b 373e 793c
00000090: 6b51 ed3d d749 9f3d 19a0 083d 3464 b53d
000000a0: 3f06 d43b 5bde d23d 686b d43d a92a 8c3d
000000b0: dbfa 393d 00a3 ec38 5abf 7e3d 91ee be3d
000000c0: 17fc 6a3d 65a2 d33d 342d 8626 1707 963d
000000d0: 82bd 803d d5b2 ff3c 7f6a 293e ab04 2b3e
000000e0: 6287 863c 60ec dd3d e8d8 303d ccac a183
000000f0: 3f2d 883d 3b61 d83d 09bf 8abc fcd8 883d
00000100: 7609 2a3d f954 563d b459 3e3d d5fe 463d
00000110: 6567 253e e964 9b3d af32 c93d 96e7 be3d
00000120: e6ee 213d dd60 af3c 4eef 7c3d e6ae d53d
00000130: e792 5c3d dd5b 983d de77 5a3d 2cc3 cb3c
00000140: 3e48 483d 7144 4fb6 b8bf f63c f614 173d
00000150: 4b87 923d 221c 683d d8ab f83c 7c0b 0f3e
00000160: 6f7e 343d c4d5 568d b147 4b3d 99a4 1b37
00000170: 9e4a 973c 9fd4 4a3d 0269 8a3c 008b 373d
00000180: d148 713c ef98 0a3d 9efb cc3d 69aa 533d
00000190: 0cd3 8f3d 49cd cc3d 8063 003e 3cf2 c43d
000001a0: bada 743d 1143 043e 43f3 8c3c 235a df3c
000001b0: ba14 a73d 5332 f43d 5ee2 b43c 08b9 953d
000001c0: 40d2 bb3d e863 2a3d a4bf 333d af19 6f3d
000001d0: 3462 133e e799 9c3d 8bdc 6e3d 5865 363d
000001e0: 5791 523d fe5e eb3c f73d f038 cd4c 843c
000001f0: 3a40 37bc fc25 123d c8ba 7a3d 25a0 a43c
00000200: 6e4e c93c 1dfc 593d 5acc 003d 2f74 883d
00000210: 7271 ca2d 1af0 063d 238c 39b4 0ccc 8d3c
00000220: 95bb b83c 2763 b7ba c0db bf3d 4060 0a3d
00000230: 0435 253c 0ffd 353d b354 0e3d 6907 b73d
00000240: 1f79 053d 98a3 293c e774 0b3c e980 9a3d
00000250: 8d62 b73d 5e3f 673d 98a0 9f3d c9fc ad3d
00000260: c130 8db0 99ff a9a9 d5b9 8939 587a 5e3d
00000270: c4b4 7f3c ad1a e43c 9396 343d 728c 933d
00000280: 93fc 0f3d a7d4 5bbc dbf3 4d3d 08bc 483d
00000290: 2382 433d c98e dd3d 2d71 e93b e9ff 073d
000002a0: 4ac0 b43c 25ad d93d f723 bf3c aceb 4e3c
000002b0: d535 343d 5536 823a 933d 503d 5666 7029
000002c0: 5966 a03d c6d9 033d 4c74 b03d c61c 0d3d
000002d0: be6c 063d 6170 aa3d d237 c13d 1ac6 343d
000002e0: 3ca9 553d 7e1d d53c 30b4 903d a5c5 3e3e
000002f0: ba00 4aa2 545c a2ba 7d1a 9f3d 5dd7 a73d
00000300: ca7b 0d3d 5f6c e33c 9507 7f3c 59cd e73c
00000310: e0f0 2d3d 71b7 cd3d deec 103d ac2f 2035

fc2.weight f4 [5, 200]
-0.10771244 -0.1237998 -0.053877138 -0.16995528 -0.08198795 -0.08915709 -0.077250816 -0.05189724
-0.07872836 -0.120131284 -0.070549235 -0.14502949 -0.09871692 0.37237057 -0.06453844 -0.034854744
-0.08635841 4.348066e-05 -2.233443e-10 -0.07824943 -0.1527899 -0.027374573 0.39592978 -0.09411276
-0.038473647 -0.06080047 -0.13811405 0.52275956 -0.076907344 -0.08803069 -3.0884548e-10 -0.017381115
-0.07273782 0.3737378 -0.030233322 -0.0676689 -0.06562444 -0.12510097 -0.061334476 -0.10786981
-0.06327356 0.4380778 0.510249 -0.13312522 0.4186055 -0.00010923505 -0.067026824 -0.054089915
-0.05567559 -0.13707204 -7.882162e-16 -0.04711196 -0.0740377 -0.06770869 -0.20536804 -0.036637444
-0.034336146 0.36217722 -0.10995737 -7.791173e-37 -0.09140699 -0.16100082 -0.055842467 -0.09378594
-0.07517409 -0.046917584 -0.08119303 -0.095619574 -0.17512478 -0.07757574 0.49442202 -0.09172155
-0.037302364 -0.04189477 -0.093709126 -0.15246312 0.3163517 -0.10632113 -0.092873216 -0.07404386
-0.091940776 -5.9306167e-06 -0.05925081 -0.08829344 0.36451542 -0.051655244 -0.041936316 -0.1514817
-0.09277009 -6.09711e-30 -0.07881337 -3.6523916e-06 -0.07013476 -0.06777105 -0.09554132 0.24485886
-0.05971728 0.29944506 0.49619368 0.32981256 0.35953444 0.46702975 -0.16808453 -0.14392039
0.39876738 -0.057041533 -0.07455251 0.33435968 0.38904002 0.46310753 -0.047066145 -0.048926387
-0.094061434 -0.07199604 -0.10523781 -0.10680322 -0.016743017 -0.12465983 -0.11740345 -0.07869776
-0.09023956 -0.052615073 -0.00011697268 -0.027305128 -0.00046550325 -0.04131439 0.27746722 -0.05686312
-0.029122427 -0.102974094 0.31184095 -0.11673844 -7.1799173e-12 -0.013129274 -2.7260398e-07 -0.017469583
-0.0507583 -0.0022900999 -0.11399588 -0.08452454 -0.10122669 0.35894316 -0.085578434 0.34721765
-0.09791413 -0.090432264 -0.01543456 -0.15193541 -0.10247779 0.31112832 0.31341466 0.4464836
-9.036883e-10 -9.118271e-14 -0.00037162256 -0.03907767 -0.05051464 -0.13781607 -0.089217246 -0.14987448
0.3522619 -0.0018198091 0.39143458 -0.09038148 -0.09998362 -0.14155081 0.08522122 -0.079655714
-0.03562194 0.43942505 -0.04938955 -0.044365752 -0.09954829 -0.00078696007 -0.022690574 -2.864382e-14
0.4274492 -0.035212066 -0.09322855 0.340056 -0.074138984 -0.109591894 -0.13954262 0.2888862
-0.08792231 -0.09786374 -0.065292895 -0.12715156 1.0059372e-18 0.00019638146 -0.082135364 0.43478966
0.32264012 -0.042636722 -0.039001502 -0.062959544 -0.08421056 -0.07275698 -0.06936811 -9.379188e-08
-0.07318779 -0.11879006 0.24437883 -0.19089648 -0.017929278 -0.06841859 0.37863743 -0.060147606
-0.08612864 -0.103352614 -0.056296337 0.545096 -0.10177578 -0.17126113 0.43199718 0.4185335
-0.06912283 4.021413e-05 1.13145576e-10 -0.054267947 -0.076417886 0.33130825 -0.077667356 -0.11332267
-0.028545424 -0.07920503 -0.023878701 -0.2213521 0.37301 -0.08731942 -1.601596e-11 0.28388318
-0.05722539 -0.14268246 0.34358218 -0.07136906 0.42427447 -0.09109668 0.29205096 -0.054946758
-0.069111265 -0.17963636 -0.22776376 -0.07120567 -0.100968935 0.000320519 -0.117031835 0.42207578
0.39383835 -0.10336589 2.8838344e-15 0.42832077 -0.08503992 -0.08220092 -0.13516624 0.5237598
00000000: 5798 dcbd c08a fdbd 46ae 5cbd c208 2ebe
00000010: 4ce9 a7bd fe97 b6bd ad35 9ebd 3392 54bd
00000020: 563c a1bd 6407 f6bd 1e7c 90bd 9c82 14be
00000030: 192c cabd 5ba7 be3e bb2c 84bd d9c3 0ebd
00000040: aedc b0bd 015f 3638 d591 75af 3d41 a0bd
00000050: f574 1cbe a440 e0bc 4fb7 ca3e 31be c0bd
00000060: 8b96 1dbd ea09 79bd c56d 0dbe 92d3 053f
00000070: 9981 9dbd 6f49 b4bd 23ca a9af d762 8ebc
00000080: 91f7 94bd 905a bf3e dfab f7bc fe95 8abd
00000090: 1b66 86bd 781a 00be dc39 7bbd d9ea dcbd
000000a0: 9195 81bd bc4b e03e ae9f 023f fa51 08be
000000b0: 7653 d63e 1f15 e5b8 5c45 89bd 638d 5dbd
000000c0: 160c 64bd 9d5c 0cbe 1730 63a6 78f8 40bd
000000d0: 14a1 97bd dbaa 8abd 004c 52be 2511 16bd
000000e0: 0fa4 0cbd 4b6f b93e 5431 e1bd 588f 8483
000000f0: 9733 bbbd 66dd 24be 12bb 64bd d812 c0bd
00000100: e0f4 99bd a72c 40bd 8848 a6bd 32d4 c3bd
00000110: e953 33be 08e0 9ebd e224 fd3e 82d8 bbbd
00000120: 5dca 18bd da99 2bbd 92ea bfbd 4b1f 1cbe
00000130: daf8 a13e e5be d9bd 5034 bebd 4fa4 97bd
00000140: 724b bcbd 9cff c6b6 fab0 72bd 31d3 b4bd
00000150: c4a1 ba3e 7394 53bd 6ac5 2bbd 051e 1bbe
00000160: 3ffe bdbd 0354 f78e e768 a1bd 9c1b 75b6
00000170: d0a2 8fbd 8ccb 8abd 2bab c3bd 48bc 7a3e
00000180: 1b9a 74bd dd50 993e 190d fe3e 31dd a83e
00000190: e614 b83e 861e ef3e 5a1e 2cbe de5f 13be
000001a0: 3d2b cc3e 62a4 69bd fdae 98bd 3131 ab3e
000001b0: 4130 c73e 6e1c ed3e 6ec8 40bd 0967 48bd
000001c0: 48a3 c0bd a972 93bd ec86 d7bd a6bb dabd
000001d0: a728 89bc a74d ffbd 3871 f0bd 4b2c a1bd
000001e0: 85cf b8bd e782 57bd 3b4f f5b8 01af dfbc
000001f0: ca0e f4b9 4739 29bd 2f10 8e3e 4ee9 68bd
00000200: 2892 eebc 15e4 d2bd 9ea9 9f3e 9014 efbd
00000210: f29e fcac 2b1c 57bc 685a 92b4 5f1c 8fbc
00000220: efe7 4fbd 8015 16bb ac76 e9bd 341b adbd
00000230: f04f cfbd 66c7 b73e bf43 afbd 83c6 b13e
00000240: 3487 c8bd 8d34 b9bd 3de1 7cbc f594 1bbe
00000250: e0df d1bd 364c 9f3e e377 a03e 8099 e43e
00000260: 6967 78b0 4153 cda9 56d6 c2b9 e80f 20bd
00000270: 70e8 4ebd a81f 0dbe 88b7 b6bd b278 19be
00000280: ac5b b43e a986 eeba 1d6a c83e ed19 b9bd
00000290: 36c4 ccbd b2f2 10be 7788 ae3d 8922 a3bd
000002a0: 50e8 11bd 52fc e03e b24c 4abd ddb8 35bd
000002b0: f9df cbbd ff4b 4eba 95e1 b9bc 1300 01a9
000002c0: 9fda da3e 873a 10bd 9cee bebd d21b ae3e
000002d0: 2ed6 97bd b771 e0bd 43e4 0ebe e4e8 933e
000002e0: 9d10 b4bd c96c c8bd 48b8 85bd 0534 02be
000002f0: 3c73 9421 bfeb 4d39 9636 a8bd c09c de3e
00000300: 1631 a53e d8a3 2ebd 0ac0 1fbd eff0 80bd
00000310: 9676 acbd 9d01 95bd de10 8ebd a26a c9b3
00000320: 7be3 95bd 3448 f3bd 723e 7a3e 5e7a 43be
00000330: 6ce0 92bc 0c1f 8cbd c4dc c13e 565d 76bd
00000340: 3664 b0bd 89aa d3bd fd96 66bd 698b 0b3f
00000350: d26f d0bd 145f 2fbe bc2e dd3e 064a d63e
00000360: 4590 8dbd 98ab 2838 4ccf f82e 1148 5ebd
00000370: fb80 9cbd 3ca1 a93e 1010 9fbd b715 e8bd
00000380: 18d8 e9bc 3f36 a2bd 449d c3bc 20aa 62be
00000390: 2bfb be3e 86d4 b2bd bce0 8cad 2359 913e
000003a0: 2c65 6abd 5a1b 12be 01ea af3e f129 92bd
000003b0: 813a d93e e590 babd b487 953e da0f 61bd
000003c0: 358a 8dbd 98f2 37be e73a 69be 47d4 91bd
000003d0: cdc8 cebd 550b a839 63ae efbd 511a d83e
000003e0: 2ea5 c93e 7fb1 d3bd 5bcd 4f27 dc4c db3e
000003f0: 6929 aebd f558 a8bd 0569 0abe 1f15 063f

fc2.bias f4 [5]
0.023141561 0.027107637 -0.025226705 -0.013225936 -0.012956688
00000000: 5f93 bd3c d610 de3c 3ca8 cebc 99b1 58bc
00000010: 4a48 54bc
